models/best_ordinal_nn_model.pth (torch, 122023 bytes, 14 tensors)

fc1.weight f4 [128, 154]
000000 79 a5 88 bd 4b b7 18 be eb 3e 31 3f 25 77 f4 3d
       -0.066721864 -0.1491367 0.6923663 0.119367875
000010 b8 f8 44 bd 93 c2 80 be 12 ba 4d 3e 90 48 18 bd
       -0.04808876 -0.25148448 0.20090511 -0.037178576
000020 0f ce 28 3c a9 f1 8e 3c 28 0a 0e 3d 89 3c 04 bd
       0.010303034 0.017449217 0.034677655 -0.032284293
000030 01 4a a4 bd 4e 94 ec 3d d6 61 23 3d 0d c4 f1 3d
       -0.080219276 0.115517244 0.039888225 0.11804972
000040 7b 5f 40 3e 67 11 9b 3d 0a d4 e7 bc a8 1a 86 bd
       0.18786423 0.075716786 -0.02829935 -0.06548053
000050 b5 c2 24 3d e2 70 22 3e e1 8c 42 bd 70 af 2e 3c
       0.04022475 0.15863374 -0.047497634 0.010661945
000060 f2 20 e1 bc a0 1b e2 3d a3 d0 08 bd e7 31 6b bc
       -0.02748153 0.11040425 -0.033402096 -0.014355159
000070 e9 b4 9c bd f5 45 9b bc 4d b4 f8 bc d2 7d a5 3d
       -0.076516934 -0.018954257 -0.030359412 0.08080639
000080 ce 25 35 bd 23 a2 39 3c be bf 6f bd d0 22 1b 3e
       -0.044225506 0.01133016 -0.05853247 0.15149999
000090 23 6e 8d bd ae 80 7f bc 1a fb 65 3b db c7 9b bd
       -0.069057725 -0.0155946445 0.0035092295 -0.07606479
0000a0 05 5e fc 3c 0a 90 3e bd ec bb 65 bd 56 82 c1 3c
       0.03080655 -0.046524085 -0.05608742 0.02362172
0000b0 f6 e1 3d bd 9c b1 e1 3c a2 52 9c bd ee d3 68 3e
       -0.04635807 0.027550511 -0.076329485 0.22737095
0000c0 43 71 c9 3b 8c c6 e7 bd e5 ee 16 bc 56 d9 33 bc
       0.006147535 -0.11317167 -0.00921223 -0.01097711
0000d0 bf e1 d5 3d 91 f5 8c 3d 83 ac 91 3d 52 aa c6 3d
       0.10443448 0.068827756 0.07112982 0.09700455
0000e0 5d cd 1d 3d b3 57 84 bd eb 70 b0 bd 2c 77 d2 3d
       0.038525928 -0.0646204 -0.086152874 0.102766365
0000f0 a1 72 b1 3b 72 0c 1d 3d 03 b6 10 3d 34 bf 0d bc
       0.005415276 0.038341947 0.03532983 -0.008651543
000100 7a 71 3f bd 7d b0 e0 3c c8 f8 c2 3d da d5 67 3e
       -0.04673908 0.027427906 0.095201075 0.22640172
000110 b5 21 b3 3d 83 a6 2d 3e 73 e9 a9 bd 5a 97 98 3c
       0.087466635 0.1695805 -0.0829648 0.018626858
000120 e5 e0 d6 bc ad 88 66 3d 15 5f 95 3d d0 14 e6 bb
       -0.026230285 0.056282688 0.07293526 -0.007021524
000130 e9 0a 8d 3c 05 7a 32 3b 63 1b 2e bd d1 fa bf bd
       0.017217116 0.0027233374 -0.042506587 -0.09374011
000140 90 a8 9f bd 30 e1 ac 3d 8b c9 80 bb 5f e3 2d 3c
       -0.077958226 0.084413886 -0.003930276 0.0106132915
000150 38 f9 1f 3c d9 aa 28 3e 07 7c bb 3d dd e3 12 3e
       0.009764008 0.16471423 0.09154516 0.14344735
000160 4d 45 8c bd 2c f5 ec 3c 9f 74 94 3b 22 d8 39 bc
       -0.068491556 0.0289255 0.004530504 -0.011343034
000170 47 7e 8b bd 7c 0b 88 3d cf 14 aa 3d e9 34 d5 bc
       -0.06811195 0.066428155 0.0830475 -0.026026206
000180 bd cb f4 3c ac e9 99 3d 56 40 95 bd 07 8d 0e bc
       0.029882306 0.075152725 -0.07287662 -0.008700616
000190 62 63 ae 3d 82 33 82 bd b7 30 a3 bd ef 4b 9c bd
       0.085150495 -0.063574806 -0.07968276 -0.07631671
0001a0 f8 b7 be 3c 29 bf 27 3e 7f aa 01 3e 9d ba 95 3d
       0.023281083 0.16381516 0.12662695 0.07310984
0001b0 06 8c b9 3d c7 48 ea bd a2 5c 4a bd f8 f4 06 3e
       0.090599105 -0.114396624 -0.049404748 0.13179386
0001c0 5f d5 f6 bc a7 a2 80 3d ae f0 ee bb 94 96 84 bd
       -0.03013104 0.062810235 -0.007291875 -0.06474033
0001d0 c4 78 a0 3c d1 d2 d2 bb d4 68 b3 ba 5d 15 b6 3d
       0.019588836 -0.0064338227 -0.0013687857 0.088907935
0001e0 f6 c5 df bc 0e 63 9c 3d 54 87 e7 3b dc ed 52 3e
       -0.027316075 0.07636081 0.007065693 0.20598549
0001f0 96 55 76 3a d7 62 30 3c 42 8b 77 3d 90 bd d5 3d
       0.00093969086 0.010765753 0.06043554 0.10436547
000200 99 fc 4f 3c a7 f0 6c 3c 50 db 9a bd 40 49 8a 38
       0.012694501 0.014461673 -0.07561362 6.593997e-05
000210 0c 28 43 3e 5b 2c 29 3c f3 2e 22 3d ad fc 71 3d
       0.19058245 0.010325517 0.039595556 0.05907886
000220 92 44 9e bd 1c 8f df 3d c9 bf be bd 85 ba fe 3d
       -0.077279225 0.10915968 -0.09313924 0.124379195
000230 67 9f 2c bc 7f 17 9e bd be f2 88 3c bd 0c 0a 3e
       -0.010536051 -0.07719325 0.016717311 0.13481422
000240 9c 6e cb 3d d5 98 f9 3d 8b d0 89 3c a1 6c 33 3d
       0.099332064 0.121873535 0.016823074 0.04380477
000250 ba 19 c1 bd df 80 9b bd 27 f2 9b 3d bd 63 c4 3d
       -0.09428735 -0.075929396 0.07614546 0.09589336
000260 40 44 7a ba 63 4e 73 3c fc 2c 38 bc c8 fd 83 bd
       -0.0009546913 0.014850232 -0.011241194 -0.06444889
000270 f5 d0 11 be b7 79 0a be 45 86 87 bd a6 8a e0 3e
       -0.14239867 -0.13522993 -0.06617407 0.4385578
000280 26 b5 40 3e 92 5e 4a bd 3a 42 ee 3d 30 89 35 3c
       0.18819103 -0.049406596 0.116337255 0.011080071
000290 b9 f9 c6 bc f6 d5 05 be 82 a2 cb bc f8 05 60 be
       -0.024288999 -0.13069901 -0.024857763 -0.21877277
0002a0 1d 04 83 be bb 4f a1 bd de 78 5d bd 4f 23 a6 3c
       -0.25589076 -0.078765355 -0.054070346 0.020280508
0002b0 20 62 1d be eb e3 3d 3d 05 82 bc bd ba 71 a2 3c
       -0.15369463 0.046359938 -0.09204487 0.01982962
0002c0 32 7f 0f 3d 69 f7 0e be f3 10 70 3d d7 52 8d bd
       0.035033412 -0.13961567 0.058609914 -0.06900566
0002d0 1d bb 25 bd e1 1f 14 be 54 4b 92 3d 38 de 02 be
       -0.04046165 -0.14465286 0.07143274 -0.12780082
0002e0 19 09 df bd 67 b5 a2 3c 7b 49 69 bc de 1c 31 3d
       -0.10890407 0.01986189 -0.0142387105 0.04324042
0002f0 77 c7 92 3c b5 33 55 bd 7c 0c c3 3c cb 19 01 be
       0.017917378 -0.052051265 0.023809664 -0.12607495
000300 a1 10 e9 3d c7 85 0b be e8 32 98 3c 25 31 6d bd
       0.11380125 -0.13625251 0.018578961 -0.057908196
000310 25 42 d0 bd 63 54 a2 bd 09 80 9c 3d aa 2f 19 be
       -0.10168866 -0.07926252 0.07641608 -0.14959589
000320 a6 d7 fb 39 5c f8 1a bd a3 ca bb bd 00 84 ad bc
       0.0004803512 -0.03783451 -0.09169509 -0.021181107
000330 f7 dd 16 3c 73 fd 4e bc ce 36 ab 3d 9c 01 01 3d
       0.009208194 -0.012633669 0.083600625 0.031495675
000340 a2 34 03 3d 18 91 f1 bc 5d 98 e4 bd e7 77 ce bd
       0.032032616 -0.029488131 -0.111618735 -0.10081463
000350 2a 94 0e bd db 11 66 3d 10 8c ab 3c fe 5e 04 3d
       -0.03480927 0.056169372 0.02094081 0.032317154
000360 cc 11 d9 bd 21 05 df bd 5f 9c ed 3b ba a9 47 be
       -0.105990976 -0.1088965 0.007251307 -0.1949834
000370 a4 d6 19 bd 72 c7 b6 bd 71 e0 08 be 6a b0 08 3d
       -0.037558213 -0.0892476 -0.13366868 0.033371367
000380 25 e8 8f 3d 94 24 3c be 98 74 1d be a8 e3 7a 3e
       0.070267 -0.18373328 -0.15376508 0.24500906
000390 3c d3 9a 3c 77 23 83 bd 85 29 04 bd b1 a8 d8 3a
       0.018899553 -0.06403249 -0.03226616 0.0016529766
0003a0 6e 63 9b 3d 8b 04 b3 bd 8f cb c9 bc 41 b1 ec 3d
       0.07587324 -0.08741101 -0.024633197 0.11557246
0003b0 18 24 56 be 4a e1 c9 3b 56 04 df 3c e3 b1 5f 3d
       -0.20912206 0.0061608898 0.027223747 0.054613005
0003c0 d3 76 20 3e 2c fd 29 bd 1d 5d 58 3c 6e ef 26 3d
       0.15670328 -0.04150121 0.013205794 0.04075568
0003d0 d0 7f 0a be 03 7e 53 3e 2b 1a 82 bd 27 69 b4 3e
       -0.13525319 0.20653538 -0.063526474 0.35236475
0003e0 c0 74 25 be e0 fa 88 bd 15 a2 87 bc 88 56 9c 3d
       -0.16157818 -0.066884756 -0.016556779 0.07633692
0003f0 1d 4c b2 3d bb 64 1d be 89 f1 b4 bd cf 21 24 3e
       0.08705924 -0.15370457 -0.08835132 0.16028522

fc1.bias f4 [128]
000000 10 b2 5f 3d 75 bf 54 bd 63 e8 ab 3c e3 31 9b 3d
       0.054613173 -0.0519404 0.020984834 0.075778745
000010 c3 c4 84 3d fd fe 3a bd cf 97 05 bc cc 61 96 3c
       0.06482842 -0.045653332 -0.00815387 0.01835718
000020 8c e2 0b 3d 43 3b 41 3d c0 01 8f bd c3 3c 6d bd
       0.0341516 0.047175657 -0.06982756 -0.057919275
000030 58 b6 17 bc 53 c5 42 3d 20 20 17 3d 8a 4f a5 3c
       -0.009259783 0.047551464 0.03689587 0.020179529
000040 0f 41 91 bd 73 46 7f bd eb 1c d9 bb 25 da b3 3c
       -0.07092487 -0.062323045 -0.0066257617 0.021954605
000050 ed d3 12 bd 35 93 03 3d 24 ae 1d bd ce df 23 3c
       -0.03584664 0.03212281 -0.03849615 0.01000209
000060 46 e7 ae 3c 72 f5 87 bc 54 1b 0d bc 44 9a b9 bc
       0.021350514 -0.01659653 -0.008612473 -0.022656567
000070 95 a0 db bc b7 4f 97 3d 09 6b 77 bd 8e 05 71 3d
       -0.02680997 0.07388251 -0.06040481 0.058843188
000080 ed e9 5b 3d 62 8b 64 3d d0 59 9b bd 2d 68 40 3d
       0.053689886 0.05579699 -0.0758549 0.04697435
000090 b0 25 08 3d 55 bd db 3c 3e 70 d7 bc 9a b2 e9 bc
       0.033239067 0.026823679 -0.026298638 -0.028527547
0000a0 11 d6 38 3d c5 b2 ce 3c b2 d4 8f bd 87 81 80 3b
       0.045126025 0.025231728 -0.0702299 0.003921691
0000b0 aa 5a c2 bc ce 70 9d 3d c8 35 9e bc 0b 0d 18 3d
       -0.023724873 0.076875314 -0.019312754 0.037121814
0000c0 d5 1d 8d 3d 63 6b 9c bd c6 ca a3 3c 42 d9 68 3d
       0.06890456 -0.0763767 0.01999415 0.05684782
0000d0 ef 78 24 3c f4 59 a0 bd a3 58 cb bc 95 d6 8e bd
       0.010038598 -0.07829657 -0.024822539 -0.06974522
0000e0 e7 fd 97 3c 09 3c 92 bd 7d 54 2b 3d 3d 4d 9b bd
       0.018553687 -0.07140357 0.04182862 -0.075830914
0000f0 c3 98 29 bd 1f f0 15 bd 05 1b 01 3d dc 8f fd bb
       -0.04140545 -0.03660595 0.03151991 -0.0077380966
000100 38 b5 8e bc eb de 4b 3d f2 58 38 3a 76 fb 1a bd
       -0.017420396 0.049773138 0.0007032297 -0.037837468
000110 28 57 50 3d 6c f1 14 bd 82 d9 4f bd 7e 70 86 bd
       0.05086437 -0.03636305 -0.05074454 -0.06564425
000120 c6 d8 70 3d 51 3f 50 3c 2c 18 34 3d 75 1f 9e bd
       0.05880048 0.012710408 0.043968365 -0.07720844
000130 16 a8 0b 3b ab c5 73 3b 25 91 b5 3c 3f f3 97 3d
       0.0021309904 0.0037196677 0.022163937 0.074194424
000140 21 78 21 bd 30 d0 62 bc 73 3f f8 3c 83 83 10 bd
       -0.039421204 -0.013843581 0.030303692 -0.03528167
000150 79 76 94 3d d2 73 9d bd 23 20 40 bd 2d 78 8b 3d
       0.07249159 -0.076881066 -0.046905648 0.06810031
000160 af 40 6c bd c9 9c 62 3d ea 6e 98 bc 82 dc 91 3d
       -0.057678875 0.055325303 -0.018607575 0.07122137
000170 d8 28 39 3d ab 64 37 bd c2 da 83 3d 34 4f 4d 3d
       0.045204967 -0.04477374 0.06438209 0.050124362
000180 e2 f3 89 3d 32 68 0c bc d7 59 3d bd 56 12 e9 bc
       0.0673597 -0.008569764 -0.046228256 -0.028451126
000190 92 62 8e bd 29 7b 10 3d cb 30 5a 3d 09 96 cf 3b
       -0.069523945 0.035273705 0.05326919 0.0063350243
0001a0 97 9d d1 bc 20 04 69 3d 1c 5a 55 bd de d8 a3 3c
       -0.02558784 0.0568887 -0.052087888 0.020000871
0001b0 be a4 3c bd 16 57 65 bd cc 76 71 3d 70 91 35 3d
       -0.046055548 -0.055991255 0.058951184 0.044328153
0001c0 d4 61 89 bd 85 24 80 bd 76 9f 8a 3d e0 36 e7 3c
       -0.06708112 -0.062569655 0.06768696 0.028224409
0001d0 d6 68 fe bc 57 b5 8d bd 63 61 84 3b 63 98 d2 3a
       -0.031055849 -0.069193535 0.0040399297 0.0016067143
0001e0 e8 75 4d bd c0 20 94 bd 37 e1 c5 bc 3a ce d8 3c
       -0.050161272 -0.07232809 -0.024155242 0.026465524
0001f0 9a 7e fc bc ac 7d 62 3d 53 d9 4f bd ca 1e 0c 3d
       -0.030822087 0.05529563 -0.050744366 0.03420905

bn1.weight f4 [128]
000000 bb bd 80 3f 89 67 4b 3f eb f4 6d 3f c6 9f 7b 3f
       1.0057901 0.7945486 0.9295184 0.9829067
000010 ba c6 6b 3f 97 b7 82 3f 71 9d 73 3f e6 a3 78 3f
       0.9210011 1.0212277 0.9516211 0.9712509
000020 a0 8a 7a 3f 7f 92 6d 3f bc d1 66 3f 99 af 72 3f
       0.97867775 0.9280166 0.9016378 0.9479919
000030 c5 04 5a 3f 2d 70 62 3f 83 77 82 3f 30 11 7f 3f
       0.8516353 0.88452417 1.0192722 0.996356
000040 a4 1e 5f 3f ff 8d 87 3f d1 3d 7b 3f f3 64 72 3f
       0.8715613 1.0590209 0.981412 0.94685286
000050 31 4c 82 3f d7 ea 77 3f 04 95 67 3f 5a 32 7a 3f
       1.0179502 0.9684271 0.90461755 0.9773308
000060 5a 22 77 3f 22 57 67 3f 72 5e 87 3f d6 fd 66 3f
       0.9653679 0.9036733 1.0575697 0.9023107
000070 fc ca 6d 3f c1 b9 6e 3f 99 97 62 3f ac 55 62 3f
       0.92887855 0.9325219 0.8851257 0.88411975
000080 3b 64 6d 3f a0 c1 7d 3f 97 46 6c 3f 9a ec 8b 3f
       0.92731065 0.99123573 0.9229521 1.093158
000090 c7 31 66 3f d6 d8 6b 3f 73 1c 65 3f 34 b8 66 3f
       0.89919704 0.9212774 0.89496535 0.9012482
0000a0 b7 af 81 3f 1d f3 7e 3f 8e 9d 71 3f 82 6c 75 3f
       1.0131749 0.9958971 0.94381034 0.95868695
0000b0 c7 07 6d 3f 5f 0e 7f 3f 29 74 7e 3f e5 8e 81 3f
       0.9258999 0.99631304 0.99395996 1.0121733
0000c0 da 88 7f 3f 40 df 82 3f f6 f0 80 3f ff 3b 82 3f
       0.99818194 1.022438 1.0073535 1.0174559
0000d0 6f c1 5d 3f d2 ea 74 3f 81 e5 87 3f b3 fb 80 3f
       0.8662328 0.9567081 1.0616914 1.0076813
0000e0 e3 1f 51 3f 7d 21 8e 3f 18 35 60 3f 19 b6 5e 3f
       0.8168928 1.110397 0.87581015 0.8699661
0000f0 6d 5a 80 3f 84 dc 83 3f 33 27 78 3f a5 cb 5e 3f
       1.0027596 1.0301671 0.96934813 0.87029487
000100 c2 82 7e 3f 15 0e 8a 3f 4a a3 75 3f 81 b0 7c 3f
       0.9941827 1.0785547 0.95952284 0.98706824
000110 a4 3e 83 3f 63 65 69 3f 39 32 76 3f f3 b7 55 3f
       1.0253491 0.9117033 0.96170384 0.8348381
000120 fb 9f 67 3f 2a 82 69 3f d3 9d 6f 3f 90 74 88 3f
       0.90478486 0.9121424 0.93600196 1.0660572
000130 c3 d6 73 3f bf d9 5b 3f db 84 75 3f 57 68 61 3f
       0.95249575 0.8587913 0.95905846 0.88049835
000140 07 5a 8a 3f 0c 40 80 3f 97 69 6c 3f a2 5c 77 3f
       1.0808724 1.0019546 0.9234862 0.9662572
000150 f6 57 85 3f 20 f0 87 3f ed 0a 53 3f 8b 66 50 3f
       1.0417469 1.0620155 0.82438546 0.8140647
000160 fb f1 84 3f 40 af 6a 3f 23 d9 88 3f c6 14 7b 3f
       1.0386347 0.9167366 1.0691265 0.9807857
000170 93 cf 82 3f 6b d3 7f 3f a5 c2 80 3f d0 31 89 3f
       1.0219597 0.99931973 1.0059401 1.0718327
000180 18 b8 77 3f 0e 8b 8f 3f ab 18 73 3f 45 bc 82 3f
       0.9676528 1.1214311 0.94959515 1.0213705
000190 bf 5d 6f 3f f1 48 6b 3f 3a 10 7d 3f ef df 7a 3f
       0.9350242 0.91908175 0.98852885 0.97997946
0001a0 f7 fd 72 3f ea 8a 77 3f 52 95 7c 3f ce 67 78 3f
       0.9491877 0.9669634 0.98665345 0.97033393
0001b0 87 a4 6f 3f 82 b2 77 3f bd 87 6b 3f 44 cc 77 3f
       0.93610424 0.96756756 0.92003995 0.9679606
0001c0 6c 69 89 3f ec b5 81 3f 39 4c 69 3f b1 ce 87 3f
       1.0735297 1.0133643 0.9113193 1.0609952
0001d0 0e 78 81 3f ab a8 7a 3f 3f 84 7a 3f b7 18 63 3f
       1.0114763 0.97913617 0.9785804 0.88709587
0001e0 c2 12 56 3f e8 3a 63 3f b6 10 8a 3f 29 9b 8b 3f
       0.8362237 0.8876176 1.078635 1.0906726
0001f0 e2 ab 77 3f 97 a7 79 3f 04 b8 7f 3f 9a 13 61 3f
       0.9674665 0.97521347 0.9989016 0.87920535

bn1.bias f4 [128]
000000 9f 24 ec be b9 1b 52 be 37 d5 9f be 43 c0 aa be
       -0.4612169 -0.20518388 -0.31217358 -0.3334981
000010 bd 16 5a be a6 8b dc be ff d5 81 be 59 a6 8d be
       -0.21297736 -0.43075293 -0.2535858 -0.27665976
000020 3c 2c a0 be e1 99 26 be e5 49 be bd da 83 a3 3c
       -0.31283748 -0.16269638 -0.09291438 0.019960333
000030 8f bd 77 be 0b 39 2a be 06 49 3b be 52 02 3d be
       -0.24193405 -0.16623323 -0.18289575 -0.18457916
000040 de 25 f8 be 98 7f 7c be 34 39 8f be 8b fd 92 be
       -0.4846639 -0.24658048 -0.2797333 -0.28709063
000050 54 43 d9 be 78 76 dc bd a6 6e 9b be 88 5e 9c be
       -0.4243418 -0.107647836 -0.30357856 -0.30540872
000060 65 63 7f be 18 ec 68 be 60 9c f0 be db d8 f3 bd
       -0.2494026 -0.22746313 -0.46994305 -0.11906596
000070 e9 04 7d be 38 38 c5 bd c3 f2 d1 be 07 cc 60 be
       -0.24708904 -0.096298635 -0.41005525 -0.2195283
000080 da f6 a2 be 54 a0 70 be 6a cc 13 be d5 4e 82 be
       -0.31828958 -0.2349866 -0.14433447 -0.2545077
000090 fc 88 3e be 0e 30 80 bd 9b 91 41 be e4 cb 3a be
       -0.18606943 -0.06259166 -0.189032 -0.1824184
0000a0 c2 ba ca be bb 15 9d bd 28 ca 47 be 72 31 97 be
       -0.3959561 -0.076701604 -0.1951071 -0.2952991
0000b0 a9 bd 88 be 56 31 60 be 2d ab 82 be c6 74 b3 be
       -0.267072 -0.2189382 -0.25521222 -0.3505003
0000c0 f8 7d 52 be f6 8a 1a bf 3f 6e ac be d6 05 18 bd
       -0.20555866 -0.6036829 -0.3367786 -0.03711494
0000d0 f1 c0 86 be ff 59 b9 be c3 43 70 be ce 5a c6 be
       -0.26319078 -0.36201474 -0.23463349 -0.38741153
0000e0 dd 83 83 be f7 85 4f be 8c 6d 4b be ec 62 8c be
       -0.2568654 -0.20265947 -0.19866008 -0.2741922
0000f0 1e b5 6d be df 76 02 be 0e 5e 22 be 98 cb 87 be
       -0.23213622 -0.12740658 -0.15856192 -0.26522517
000100 1a 88 d1 bd e1 35 2a be b9 2e 23 be 68 08 8d be
       -0.102310374 -0.16622116 -0.15935792 -0.27545476
000110 e7 b9 a6 be 8c a2 93 be c7 6e 9a be fb 65 41 be
       -0.32563707 -0.2883495 -0.3016264 -0.18886559
000120 16 bb 49 be 74 c1 84 be 29 a0 9d be 66 95 9b be
       -0.19700274 -0.25928843 -0.30786255 -0.3038742
000130 03 20 7a be ab c2 f8 bd 07 8e 8c be 10 94 23 be
       -0.24426274 -0.12146505 -0.27452108 -0.1597445
000140 ab bc 8b be f6 fd a5 be 1a 07 9a be db 8f 47 be
       -0.2729238 -0.3242032 -0.30083543 -0.1948847
000150 b8 c5 d8 be a5 8c e3 be 42 b7 42 be 1e fb 22 be
       -0.42338347 -0.4444324 -0.1901522 -0.15916106
000160 d1 a0 9f be 56 a0 1a be 2d 99 94 be 53 20 65 be
       -0.3117738 -0.15100226 -0.29023114 -0.22375612
000170 f4 7e 89 be db 29 a9 be 92 e5 21 be 34 6d 6c be
       -0.2685467 -0.33039746 -0.1581023 -0.23088533
000180 c1 79 59 be 0b ef 76 be 9f f4 70 be 2e da 77 be
       -0.21237852 -0.24114625 -0.23530816 -0.24204323
000190 00 1f b0 be 4e 1d 34 be bf f1 d2 be c2 46 ad be
       -0.3439865 -0.17589304 -0.41200063 -0.33843046
0001a0 e5 91 3e be 65 c2 8b be 6e 6a 52 be c0 9f ef bd
       -0.18610342 -0.2729675 -0.20548412 -0.11700392
0001b0 82 fb 36 be d1 50 a3 be 75 55 9d be 25 50 c3 be
       -0.1786938 -0.31897596 -0.3072926 -0.38147083
0001c0 78 4d bb be cf 4f e7 bd 5b 78 97 bd 03 9c c6 be
       -0.3658254 -0.11294519 -0.07396003 -0.38790902
0001d0 46 a1 b6 be a8 d2 28 be e9 cb 7a be 6f ea 53 be
       -0.35669917 -0.16486609 -0.24491848 -0.20694898
0001e0 cb aa 75 be 5e 9f 34 be b8 e7 3f be 40 3b 42 be
       -0.23990934 -0.17638919 -0.18740737 -0.18967915
0001f0 2a 89 f3 be 3d e6 87 be bb f9 90 be 18 06 3b be
       -0.47565585 -0.26542845 -0.2831553 -0.18264043

bn1.running_mean f4 [128]
000000 e0 18 30 3d d1 26 d1 bc e7 a5 b1 3c 0c 54 db 3d
       0.042992473 -0.025531204 0.021685554 0.1070939
000010 2d 93 84 3d 9b 30 b4 bd 72 ca 83 3b 0c 38 87 3c
       0.06473384 -0.08798333 0.004021936 0.016506217
000020 1a d6 75 3d 5e 81 da 3b 57 f5 58 bd 0e da ac bd
       0.060018636 0.006668254 -0.05296835 -0.08440028
000030 00 c8 39 37 81 33 b1 3c 07 3c 43 3d 48 57 13 bc
       1.1073425e-05 0.021631004 0.04766467 -0.008992977
000040 0e a7 62 bd f8 c7 12 bd 54 d0 a0 bb e5 85 3e 3c
       -0.055335097 -0.035835236 -0.004907647 0.011628603
000050 22 3f 39 bd e0 79 61 3d e3 3b 86 bd 27 ad 08 3d
       -0.045226224 0.05504787 -0.06554391 0.033368256
000060 22 87 12 3d bf 04 af bc c0 89 42 3d 9a a5 08 bd
       0.035773404 -0.021364568 0.04749465 -0.033361055
000070 2b 15 9d bc 9b bb 96 3d 22 11 9f bb 11 b7 59 3d
       -0.019175133 0.07360002 -0.0048543373 0.0531531
000080 96 fa 6e 3d e6 18 15 3c 76 aa c6 bd 99 d3 5a 3d
       0.058344446 0.0091001745 -0.097004816 0.05342445
000090 1c 7b 6a 3c 4a 33 2e bc e1 3b f5 bc 91 21 35 bd
       0.014311578 -0.010632345 -0.029935779 -0.044221465
0000a0 56 12 6f 3d 64 dd db 3c 50 9d fb bd 87 2a 29 3d
       0.058367096 0.026838966 -0.12285864 0.041300323
0000b0 a1 83 05 bc 03 cf 2d 3d 52 c2 5d bc 10 a6 e6 3a
       -0.008149059 0.04243375 -0.013535099 0.0017597098
0000c0 99 34 8f 3d 39 c9 51 bd dd 47 07 3d 9d 3d 2b 3d
       0.06992454 -0.05121729 0.03302752 0.041806806
0000d0 6c 1d 15 3d e0 72 a8 bd b0 c2 c5 39 8d 03 ca bd
       0.036405012 -0.08225036 0.00037719822 -0.098639585
0000e0 46 33 23 3c b1 b3 9a bd 9a a5 be 3d 8a ac 1d bd
       0.009960955 -0.07553805 0.0930893 -0.038494624
0000f0 d7 c8 04 bd 20 fe e5 b9 f2 64 86 3c ea a0 ed bb
       -0.0324181 -0.00043867622 0.016405556 -0.0072518485
000100 89 0f b4 bb 5d 7e 0c 3d 26 8b d3 bc e1 f3 89 bd
       -0.005495016 0.034300197 -0.025823187 -0.06735969
000110 8a 5a 3f 3d 76 d8 0f bd 58 88 91 bd e8 ec 82 bd
       0.046717204 -0.035118543 -0.07106084 -0.063928425
000120 0c 2e fd 3d 9f 4e 48 3d c5 2e 5b 3d fa 8f b1 bd
       0.12362298 0.048903104 0.0535114 -0.086700395
000130 21 0d 09 3d 94 82 9f bc d8 62 19 3d bf 16 e3 3d
       0.033459786 -0.019471444 0.03744778 0.11088323
000140 b0 d4 89 bd 16 bd fc bc 17 60 b7 3d fc 5d d2 bc
       -0.0673002 -0.030851882 0.089538746 -0.02567958
000150 c0 93 fd 3c 9f b6 51 bd ab e9 24 bd dd 4d af 3c
       0.030954242 -0.05119955 -0.040261906 0.021399433
000160 92 47 33 bd e0 08 59 3d a9 c2 22 3c ac e4 c1 3d
       -0.043769427 0.05298698 0.009934106 0.09467444
000170 ea 84 c3 3d b5 e4 2a bd b4 e0 1c 3d 31 7c 84 3d
       0.09546836 -0.04172202 0.03830023 0.06469
000180 d6 8c 73 3d 86 4d 37 bc 7a cc e7 bc 79 a1 a7 bc
       0.059460483 -0.011187917 -0.028295744 -0.020462738
000190 56 ac 9c bd b1 40 42 3d 00 1c 40 3d 76 c9 ee bc
       -0.07650058 0.047424976 0.046901703 -0.029148798
0001a0 de 45 b8 bc 05 89 8a 3d 79 ca 33 bd f4 72 6f 3d
       -0.022494253 0.06764416 -0.043894265 0.058459237
0001b0 6d dd e6 bc 1a 13 82 bd 6d 62 df 3d 42 2e 46 3c
       -0.028181756 -0.063512996 0.10907445 0.01209599
0001c0 ef 5e a6 bd 88 18 a0 bd 20 d3 08 3d eb 96 80 3c
       -0.08123576 -0.07817179 0.03340447 0.015696963
0001d0 ab 98 28 bd b7 c1 1e bd fe ca b5 3c e0 0e 02 3d
       -0.04116122 -0.03875896 0.02219152 0.031752467
0001e0 04 b8 b1 bd 9a 93 94 bd 8c 15 07 bd 5f 23 9c 3d
       -0.08677676 -0.07254715 -0.032979533 0.07623934
0001f0 5e 43 2b bd af c7 52 3d dd e6 82 bd 23 ef f7 3c
       -0.041812293 0.051459964 -0.0639169 0.030265396

bn1.running_var f4 [128]
000000 c8 8f e2 3f 11 93 0f 40 eb 53 cd 3f 7d c6 c4 3f
       1.7700129 2.2433512 1.6041235 1.5373074
000010 1d 72 a0 3f 78 7e 0a 40 51 fe d2 3f 10 3c b9 3f
       1.2534825 2.163969 1.6483861 1.4471455
000020 ac fa 0f 40 49 1a 04 40 5c 5c cd 3f 20 e3 22 40
       2.2496748 2.0641043 1.6043811 2.5451126
000030 bd 32 d2 3f 16 74 ad 3f 6c ab 03 40 8f 7e f1 3f
       1.6421734 1.3551052 2.0573378 1.8866748
000040 4b 9b b8 3f 8c 8f dc 3f 60 4e 00 40 40 dd ba 3f
       1.4422392 1.7231307 2.0047836 1.459877
000050 4e 79 f6 3f cd c8 be 3f 6a 8e c5 3f 90 aa a5 3f
       1.9255769 1.490503 1.5434086 1.2942677
000060 29 5e b6 3f 02 19 d9 3f a2 4b e5 3f fb ae fb 3f
       1.4247485 1.6960757 1.7913706 1.9662775
000070 49 c8 f1 3f 76 3d 11 40 93 db ca 3f a7 8b 0f 40
       1.8889247 2.2693763 1.5848259 2.2428987
000080 7f 28 b6 3f b7 1d 01 40 15 ff a2 3f 93 8a b7 3f
       1.4231108 2.0174387 1.2734095 1.4339164
000090 7b 1d bd 3f a2 ca e3 3f 96 6b c5 3f 68 4a eb 3f
       1.4774622 1.7796214 1.5423458 1.8382082
0000a0 a3 f4 c5 3f 6b 43 e3 3f 72 2c b8 3f f3 25 aa 3f
       1.5465282 1.7754949 1.4388564 1.3292831
0000b0 71 25 bf 3f fe 5f e1 3f 6c e2 cb 3f 9f 54 04 40
       1.4933301 1.760742 1.5928473 2.0676649
0000c0 25 3e 03 40 f7 e3 a2 3f 1e ab 1a 40 f9 f0 09 40
       2.050668 1.2725819 2.4166942 2.1553328
0000d0 10 5c d0 3f 57 76 15 40 24 0b fa 3f 1e ad d9 3f
       1.6278095 2.335348 1.953465 1.7005956
0000e0 3b 6c c5 3f 06 dc d0 3f 79 d6 00 40 22 85 a9 3f
       1.5423654 1.6317146 2.0130904 1.3243754
0000f0 1f dc cf 3f ee fd f4 3f a7 cd cd 3f 63 33 cf 3f
       1.6239051 1.9139993 1.6078385 1.6187557
000100 6a 7d ea 3f af 8b 12 40 4e ed e9 3f 2d d9 18 40
       1.8319523 2.2897756 1.8275545 2.3882554
000110 54 34 1f 40 af be a8 3f 07 e3 c9 3f 46 f6 06 40
       2.4875689 1.3183192 1.5772408 2.1087813
000120 ea d2 d1 3f 44 72 d1 3f ec 42 c0 3f 62 51 cd 3f
       1.6392491 1.6362996 1.5020423 1.6040461
000130 26 2e dc 3f 7b 16 da 3f ce 11 d0 3f 83 f1 03 40
       1.7201583 1.703811 1.6255434 2.0616157
000140 82 62 12 40 f7 4e 18 40 66 9d be 3f 46 25 d1 3f
       2.2872624 2.3798196 1.4891784 1.63395
000150 16 4f d6 3f 8d d9 be 3f 52 9c c4 3f f6 ea 08 40
       1.6742885 1.4910141 1.5360205 2.1393409
000160 38 f8 07 40 6e 21 cc 3f be 51 cf 3f f3 18 a1 3f
       2.124525 1.5947702 1.6196821 1.2585739
000170 a9 9f b4 3f f4 67 9d 3f 37 97 d5 3f 0a 3c cf 3f
       1.4111224 1.2297349 1.6686772 1.6190197
000180 98 02 ca 3f 60 f5 d7 3f 24 15 ed 3f 25 e5 b0 3f
       1.5782042 1.6871758 1.8522077 1.3819929
000190 7b d4 c9 3f 88 88 e6 3f cd a9 f9 3f 59 4c bb 3f
       1.5767969 1.8010416 1.9504944 1.4632674
0001a0 72 ab ae 3f e1 19 08 40 df c2 b7 3f f9 c3 ef 3f
       1.3646071 2.1265795 1.4356345 1.8731681
0001b0 da 55 9b 3f 69 f8 1a 40 06 c6 b2 3f b6 0e 2f 40
       1.2135575 2.4214118 1.3966682 2.735273
0001c0 43 c1 0f 40 5d 7c 16 40 e4 32 02 40 7c 08 c7 3f
       2.2461708 2.3513405 2.034356 1.5549464
0001d0 cb 62 42 40 a5 14 d2 3f 23 63 dd 3f 6e ac c2 3f
       3.0372798 1.641255 1.7295879 1.5208871
0001e0 6f 36 b4 3f 06 e6 e0 3f e0 27 ed 3f b0 2e f0 3f
       1.4079112 1.7570198 1.8527794 1.8764248
0001f0 33 4f d0 3f 92 58 c5 3f bd 79 ca 3f e9 e4 ff 3f
       1.627417 1.5417655 1.5818402 1.9991733

fc2.weight f4 [64, 128]
000000 5b dd 38 be 11 ff 2f be 6b a2 04 3d b1 a4 08 3e
       -0.1805319 -0.17187144 0.032381456 0.13344075
000010 e1 45 f0 bc 59 42 0d 3e 57 16 1c be a4 6d b5 bd
       -0.029330196 0.13794841 -0.15242897 -0.08858803
000020 6f e9 c0 bd 42 f0 f9 3c cc c8 99 bd ee 80 18 3b
       -0.09419524 0.030510072 -0.07509002 0.0023270207
000030 2a 7e 26 3e f8 9e 07 3d 2c 3c 1b be 16 84 50 be
       0.16259065 0.03311059 -0.15159672 -0.20362887
000040 d5 e0 b6 bd 54 5b 96 bd e9 7b 29 3e 90 68 17 3c
       -0.08929602 -0.07341638 0.16551174 0.009241238
000050 32 13 0e 3e 19 31 e5 ba e3 a6 d3 bd 8e 63 29 bd
       0.1387451 -0.0017485946 -0.103345655 -0.04135471
000060 42 a4 a8 3d a0 76 99 3c f1 30 00 3e d6 4c 0d bd
       0.08234455 0.018733323 0.1251867 -0.034497105
000070 be 56 1f 3c 0d 3b f9 bd 08 21 1c bd 3d 80 27 3d
       0.009725271 -0.12169466 -0.03811744 0.040893782
000080 7e 7c 15 bd 0e e8 ef bc b5 89 a2 3d d7 13 d0 bc
       -0.036495678 -0.029285457 0.07936422 -0.025400085
000090 03 6b 1b bd d9 6c 1b 3e 0e 92 b4 3d 0d 62 33 3e
       -0.03794385 0.15178241 0.0881692 0.17517872
0000a0 76 8a 41 3e c6 ee fd 3c bd ba 1d 3d e3 ce 02 3d
       0.18900475 0.030997645 0.038508166 0.031935584
0000b0 ac 24 2c bd c4 be f5 3c a8 c7 15 be 9a a5 24 3c
       -0.04202716 0.02999819 -0.14626944 0.010049248
0000c0 9c e6 3d 3d 32 ab 9b 3d 64 85 be 3d 49 e9 24 bd
       0.046362504 0.07601012 0.09302786 -0.04026154
0000d0 7c a0 48 3d 6a 9a 18 bd de 0c 0d 3e 3f 0a ad 3c
       0.048981175 -0.037256636 0.1377444 0.02112305
0000e0 ad 12 90 bd 4d 73 3a be 15 1f 69 bd 69 d2 2d bc
       -0.07034812 -0.18208046 -0.056914408 -0.010609248
0000f0 e4 96 06 be 23 7c 8e bd 27 76 7d bb 57 be 6a 3c
       -0.13143498 -0.06957271 -0.003867516 0.014327607
000100 fc 6c e3 bd 85 44 25 be a9 de d7 bd 4f f9 bb bc
       -0.111047715 -0.1613942 -0.10540516 -0.022946028
000110 98 74 28 3e f2 af f0 3c 88 11 e7 3d bf 32 87 bd
       0.16450727 0.029380772 0.11282641 -0.06601476
000120 60 45 fa 3c 8f 6b 82 bc fc 36 22 3e ed 0d 30 3c
       0.030550659 -0.015920429 0.15841287 0.010745508
000130 62 a8 3b be 07 d8 de bd fb 51 9c 3d 1d 67 f3 bd
       -0.18325952 -0.10881048 0.07632824 -0.11884902
000140 f2 cd 61 3e b4 92 3f 3e fd 05 08 bd ac 13 42 be
       0.22051218 0.18708307 -0.033208836 -0.18952817
000150 a9 6f 62 bd f2 46 47 bd 01 42 40 bd 03 60 4b bd
       -0.05528227 -0.048651643 -0.046937946 -0.04965211
000160 f2 ea 8b bc a3 a9 27 3e a3 32 8e 3d 97 a8 ea bc
       -0.017079804 0.16373305 0.06943252 -0.028644843
000170 a7 61 9e 3c 53 d9 2b be e6 b2 ee 3d 09 3f 2a bd
       0.019333674 -0.16782121 0.11655216 -0.04156402
000180 2c 4f a9 bd 00 72 49 bc 63 19 03 bd 86 78 a2 3c
       -0.08267054 -0.012295246 -0.032006633 0.01983286
000190 c9 4a 84 bd 44 b2 a3 3d 39 49 9d bc 8b ce 0a bc
       -0.06459577 0.07992986 -0.019199954 -0.008472095
0001a0 86 ca 92 bd d7 c0 36 bd ab f1 72 3d d8 1d 12 be
       -0.071675345 -0.0446175 0.059312504 -0.14269197
0001b0 39 91 d5 3d d5 a7 32 bd 86 d6 37 3d 12 3b b2 3d
       0.1042809 -0.04361709 0.04488232 0.08702673
0001c0 a1 ce 43 3e c1 b4 98 bd e6 6b 74 bd 9d a7 f2 bc
       0.19121791 -0.07456351 -0.059673212 -0.02962094
0001d0 ed 0f 2e bd 46 e0 a2 3c 0d c4 5e 3d c3 f8 e6 bd
       -0.042495657 0.019882333 0.054386187 -0.11277916
0001e0 30 79 88 bd bb d7 c1 bd 0f 3c d2 3d f7 92 c0 bd
       -0.0666374 -0.094649754 0.102653615 -0.09403031
0001f0 37 83 1b 3d 0c 7b 51 bc 45 b8 b8 bd 98 95 22 3e
       0.037966933 -0.012785684 -0.090195216 0.15877378
000200 78 9c 0f 3e 7a 38 35 3b 81 22 30 be e0 e8 52 3c
       0.14024532 0.002765207 -0.17200662 0.012872905
000210 2d db d4 bb 1c b2 d6 3d bc 29 90 bd a5 79 ea bd
       -0.0064958544 0.104831904 -0.0703921 -0.11448983
000220 e2 3d 42 be cd 18 37 3b 8f 9c 2f 3b 80 f5 67 3d
       -0.18968919 0.0027938366 0.0026796197 0.05663061
000230 53 f9 d7 3c 53 7b d8 3d 6c db 8c 3c 6d 31 69 bd
       0.026364004 0.10570397 0.017194472 -0.0569319
000240 7f 44 0c be 94 3a 92 bd a3 ff ba 3d 66 c4 d6 bb
       -0.13698004 -0.07140079 0.0913079 -0.0065541742
000250 05 a9 07 3e c8 dc 55 be 67 20 2d bd fb 4c 27 be
       0.1324807 -0.20885003 -0.04226723 -0.1633796
000260 5b 86 26 bd 5f 9c 6b bd 8a 4c 0b 3e f1 ad 48 be
       -0.040655475 -0.057522174 0.13603416 -0.19597603
000270 7e 4c 39 be db 6e 89 bd ae cc 99 3d 87 8b 79 3d
       -0.18095586 -0.06710597 0.07509743 0.06092408
000280 0c e6 ae 3c 89 67 6d bd 19 f5 43 3d e1 1e c2 bd
       0.02134993 -0.057960067 0.047841165 -0.09478546
000290 30 9a e9 3d 1a 0b 23 be fe 2c 86 bb 57 6d 2f bd
       0.11406362 -0.15922204 -0.004094719 -0.042828884
0002a0 70 e7 a8 bd c2 5a 8d bd b0 8f fd 3d a3 73 21 bc
       -0.08247268 -0.06902076 0.12380922 -0.00985423
0002b0 75 a6 0d 3d fb 46 49 3e 86 f5 95 bd 23 13 48 3e
       0.034582574 0.19655983 -0.073222205 0.1953855
0002c0 fc e8 6e 3d de b9 41 3d 4c 55 e2 3c 8a 2e f3 3d
       0.05832766 0.047296397 0.027628563 0.11874111
0002d0 74 cf 32 be f0 67 20 3e 88 5b 58 bc e1 d9 50 3e
       -0.1746195 0.15664649 -0.0132054165 0.20395614
0002e0 be 13 15 3e 6a 63 95 3c 28 c1 70 bd ed 0b 98 bd
       0.14558312 0.01823588 -0.05877796 -0.0742415
0002f0 f1 49 29 bd 05 28 30 3d 18 dc 08 be 4e 17 5c 3d
       -0.04133028 0.043006916 -0.13365209 0.053733163
000300 f3 8c 65 be 2d 7e f7 3d c1 18 2a 3e 0b e8 47 3d
       -0.22417049 0.12084613 0.16611005 0.048805278
000310 3f 28 eb 3d dd ce ba 3d 95 b8 29 3d f2 1b 48 3d
       0.11482286 0.09121487 0.041435797 0.048854776
000320 f4 2e 1b 3e 69 3c 53 3d 34 61 ba 3d cc 98 e3 3d
       0.1515463 0.051571283 0.09100571 0.11113128
000330 78 95 06 bd 79 35 32 bc 3f 7a 85 bd 9d 9b e6 bd
       -0.03285739 -0.010877007 -0.06517457 -0.1126015
000340 9d fc 23 bd 29 a5 44 3d 94 ac cd bd e4 a2 26 be
       -0.040035833 0.04800907 -0.10042682 -0.16273075
000350 d3 bc cc 3d 49 37 a8 bd 93 7c 24 bd 53 97 0a 3e
       0.09996953 -0.0821367 -0.040157866 0.13534288
000360 c6 4a df bc db 71 40 3c 17 f8 26 bd 5e fb d7 3d
       -0.027257334 0.011745895 -0.04076394 0.10545991
000370 99 b2 ba bd 81 e7 88 be e0 43 0c 3e f7 fe fb 3b
       -0.09116096 -0.26739123 0.13697767 0.0076903063
000380 0f 4c 6f be c7 0e 81 3d e9 e2 8b 3b 31 1e 6b bd
       -0.23368858 0.06301647 0.004268993 -0.05740184
000390 12 ea 0a bd 03 35 f1 bc 22 2e 56 bd 96 60 8f bd
       -0.033914633 -0.029444223 -0.05229009 -0.07000844
0003a0 8a 0c 88 bd 0b d2 e6 3d 5c 37 85 3d 77 6c 1f 3c
       -0.06643017 0.11270531 0.065046996 0.00973045
0003b0 23 82 4b be 77 43 37 3e fb e5 b0 3d f5 9f ab 3c
       -0.19873862 0.1789683 0.08637615 0.020950297
0003c0 a4 cc a9 3d 7a 02 4d bd 12 51 1c be 6b cc 43 3e
       0.08290985 -0.05005119 -0.15265301 0.19120948
0003d0 1a dd b3 3c d3 03 a5 be 49 af db bd 7a f3 7e be
       0.021956015 -0.3222948 -0.10726792 -0.24897566
0003e0 f9 5e bf 3c 7f 85 eb bd 68 c5 06 3e ff 36 a2 3d
       0.023360716 -0.11500072 0.13161242 0.07920646
0003f0 30 17 72 3e ac bf 36 be 90 47 f6 3d 9f e9 ae bd
       0.23641658 -0.17846555 0.12025368 -0.085406534

fc2.bias f4 [64]
000000 d3 ce 60 bd 71 5a 64 bd 15 4c eb bb 00 ac e0 bc
       -0.054884743 -0.055750314 -0.0071807005 -0.027425766
000010 0f 8f bb 3a 45 73 0c 3d 42 d5 da bc c6 9b f4 ba
       0.0014309603 0.034289617 -0.026713017 -0.0018662147
000020 85 b6 33 bd 83 d5 9b 3d e9 6d 6c bd e2 c8 d1 bb
       -0.043875236 0.076090835 -0.057722006 -0.006402121
000030 c7 d0 9a 3d c6 c9 21 3d ad 38 3d 3d d6 ae f1 bc
       0.07559352 0.039499067 0.04619663 -0.029502314
000040 72 a0 0e bd e5 33 27 3d b7 2a 88 bd 2d 74 8f 3c
       -0.03482098 0.040820975 -0.06648772 0.017511452
000050 25 95 42 3d be b0 24 3c 93 c1 01 3d f1 bc 1a 3d
       0.047505517 0.010051904 0.031678747 0.037777845
000060 0d 3d 0d bd 16 a9 b1 bd 06 c2 64 3d 12 83 20 3d
       -0.03448205 -0.08674829 0.055849098 0.0391875
000070 bd e4 aa bd 0a a1 8a bd 87 9e b8 3c 24 2e b1 bd
       -0.083444096 -0.06768997 0.02253653 -0.08651379
000080 dd 9b 6d bd a1 60 af bd ba 70 9b bd 5a 69 9e 3d
       -0.05800997 -0.085633524 -0.0758986 0.07734938
000090 ed c0 3d bd 85 e1 88 bd 4c 96 79 3c eb 42 67 3c
       -0.046326566 -0.066836394 0.0152335875 0.014115076
0000a0 5f fd aa bb 1b 6a 75 3d 73 e3 a6 bd 5d 83 cc bb
       -0.0052181925 0.059915643 -0.08148851 -0.0062412457
0000b0 a8 a4 91 bd ed 05 bb 3c f7 a1 9d bd 51 08 85 3d
       -0.07111484 0.022829974 -0.07696908 0.06495727
0000c0 33 53 d6 3c b6 3f 12 3c f6 c4 ac 3d f4 33 46 3d
       0.02616272 0.008926323 0.08436005 0.04838939
0000d0 00 ed ac 3d 72 73 05 3d d7 12 b8 bd ac c5 70 bd
       0.08443642 0.0325808 -0.089879684 -0.058782265
0000e0 70 7e 33 3d 65 fe 14 bd c6 e1 1d 3d 72 a1 ad bd
       0.043821752 -0.036375422 0.038545392 -0.08478059
0000f0 21 b7 a6 bd 84 3c 92 bd 1a 1d 84 3c 95 c7 55 3d
       -0.08140398 -0.07140449 0.016127158 0.05219229

bn2.weight f4 [64]
000000 b0 d0 4e 3f ed 3e 74 3f 6b 03 6f 3f 02 e6 6a 3f
       0.8078718 0.9540852 0.9336459 0.91757214
000010 88 f8 49 3f 7b 99 72 3f 23 f7 59 3f 97 1f 49 3f
       0.78894854 0.9476544 0.85142726 0.7856383
000020 fb a9 7d 3f cf 83 70 3f db c1 76 3f e9 80 6d 3f
       0.99087495 0.93951124 0.9638955 0.92774826
000030 f3 df 61 3f 86 14 70 3f 95 e5 67 3f 0e e0 7d 3f
       0.88232344 0.93781316 0.9058469 0.99170005
000040 67 11 45 3f e4 fc 65 3f 1f 24 52 3f 3d 84 78 3f
       0.7697968 0.89839005 0.82086366 0.9707678
000050 6b a4 5f 3f 15 88 4e 3f 39 3b 59 3f a7 96 65 3f
       0.87360257 0.80676395 0.8485599 0.89683
000060 35 15 6d 3f da 39 6e 3f f9 52 67 3f e3 87 62 3f
       0.92610484 0.93057024 0.9036098 0.88488597
000070 05 8f 77 3f d1 20 77 3f f9 cf 64 3f a7 39 79 3f
       0.96702605 0.9653445 0.8937984 0.97353595
000080 f9 23 5e 3f 6d 97 69 3f 00 fe 7d 3f 91 ce 64 3f
       0.8677364 0.9124668 0.992157 0.89377695
000090 a3 05 6f 3f 16 58 77 3f db 5b 72 3f c1 fe 4f 3f
       0.93367976 0.96618783 0.9467141 0.812481
0000a0 75 85 6b 3f ad 73 68 3f 5d 4a 78 3f b1 06 6d 3f
       0.92000514 0.9080151 0.9698847 0.92588335
0000b0 23 15 79 3f 42 0e 71 3f b0 11 71 3f 93 66 75 3f
       0.9729788 0.9416238 0.94167614 0.9585964
0000c0 b5 fe 62 3f 05 4d 79 3f 2f 53 6b 3f 61 c8 69 3f
       0.886699 0.9738315 0.91923803 0.9132138
0000d0 77 c3 73 3f 25 d7 64 3f b2 f0 51 3f 15 17 7c 3f
       0.9522013 0.89390785 0.82007897 0.9847272
0000e0 3c f0 6d 3f b9 e7 6a 3f bf 47 56 3f 7c 20 76 3f
       0.92944694 0.9175983 0.83703226 0.9614332
0000f0 c9 42 76 3f 73 cb 5f 3f 44 62 6c 3f 12 61 64 3f
       0.96195656 0.87419814 0.9233744 0.8921062

bn2.bias f4 [64]
000000 06 50 4d 3e ad 41 63 3d ef 93 21 3e 1d ee 0b 3e
       0.20050058 0.055482555 0.15779088 0.13665052
000010 42 9d 85 3e bc e9 1f 3e e4 36 73 3e 53 02 17 3e
       0.2609654 0.15616506 0.23751408 0.1474698
000020 f7 60 16 3e 1a 87 b3 bc 53 c6 cc bd 52 df 8e 3d
       0.14685427 -0.021915007 -0.09998765 0.06976189
000030 ec ed 49 3e 60 11 45 3e f2 5b d9 bd 2c 27 bf 3d
       0.19719666 0.1924491 -0.1061324 0.09333643
000040 0f 26 20 3e 37 45 a4 be 9d c4 1e 3d 92 d8 c9 3c
       0.15639518 -0.32084057 0.038761724 0.024639402
000050 e1 c8 0f 3e b2 19 1e 3e b6 ab 6d 3e a7 a7 d3 3d
       0.14041473 0.1543949 0.23210034 0.103347115
000060 17 35 0c bb f1 23 7e be f2 7f 13 3e 70 42 e6 3d
       -0.0021393949 -0.24818398 0.14404276 0.11243141
000070 e0 4a b3 bd 2c 15 ab 3d 6b dc 96 be 77 68 f0 bc
       -0.08754516 0.083536476 -0.2946504 -0.029346688
000080 bb a7 65 3e fb cb 88 3d c9 9a b3 3d f1 98 55 be
       0.22427265 0.06679531 0.08769757 -0.20859124
000090 3c 19 98 bd 53 48 20 3e c4 0d 0a be bd 6a f0 3d
       -0.07426688 0.1565259 -0.13481814 0.11739109
0000a0 02 19 e2 3d 4c 47 bf 3d 6b 8f b9 3d 6b dc 5c bd
       0.11039926 0.09339771 0.09060558 -0.053921144
0000b0 a8 d5 17 be 37 2c 86 3d 65 f2 3e be 6f 27 29 bd
       -0.14827597 0.06551402 -0.18647154 -0.041297372
0000c0 89 d0 09 3e 40 f6 d8 3d b8 ad 94 3d 92 4c 25 be
       0.13458456 0.105938435 0.07259697 -0.1614249
0000d0 6d 60 56 3e b9 10 ad be 0a 1a af 3d f6 f2 b5 3d
       0.20935221 -0.3380182 0.085498884 0.08884232
0000e0 fe 83 6c bd 14 02 05 bd a2 67 7d 3d 68 3b 88 3d
       -0.057743065 -0.032472685 0.06186641 0.06651956
0000f0 fb fd 3b be 00 50 58 3e 74 ba 4f be ee d6 71 be
       -0.18358605 0.21124268 -0.2028597 -0.23617145

bn2.running_mean f4 [64]
000000 d9 51 a7 be 15 fc 96 be 76 d4 9e bf d5 73 c0 be
       -0.32679632 -0.29489198 -1.2408588 -0.37588373
000010 6b 7f de bf c3 de b8 bd 3d 33 bd be 52 f7 d7 bf
       -1.7382635 -0.090268634 -0.36953154 -1.6872351
000020 b0 b2 88 be 2d e5 bd bf 45 db 54 bf 15 34 92 bf
       -0.26698828 -1.4835564 -0.8314708 -1.1422144
000030 0c 57 ba bf 20 5b c0 be 5d cb 97 bf 9b d2 15 bf
       -1.4557815 -0.37569523 -1.1858937 -0.58524483
000040 55 6f 8d bf 3b a9 77 3f 10 23 a4 bf 32 27 76 be
       -1.1049601 0.967426 -1.28232 -0.2403839
000050 0e e4 aa be 07 b1 3c bf cc be a4 bf d5 5e 02 bf
       -0.33377117 -0.7370762 -1.2870727 -0.5092595
000060 56 4f ca bf 8e d6 dc bf bd 51 04 bf 5c d9 ab bf
       -1.5805461 -1.7252977 -0.5168722 -1.3425708
000070 03 2d 8a be 21 19 17 bf 68 69 66 bf 11 f7 27 bf
       -0.26987466 -0.5902272 -0.9000459 -0.6561137
000080 01 0f 35 bf 32 af 4d 3e b7 66 4d bf 80 33 5b bf
       -0.7072602 0.20086363 -0.80234855 -0.8562546
000090 cf ac bc bf ac d7 71 be 18 9b 14 bf 29 b0 79 bf
       -1.4740237 -0.23617429 -0.58049154 -0.97534424
0000a0 85 a9 fa be d8 0a 9f bf 43 96 05 bc 0a ac d1 bf
       -0.48957458 -1.2425184 -0.008153501 -1.6380627
0000b0 34 62 bb bf 2e 5a 85 bf e3 55 c2 bf 59 a3 4e bf
       -1.4639344 -1.0418146 -1.518246 -0.80718
0000c0 5b f8 81 bf bc 96 ae be 56 b5 a0 bc df bc 9c bf
       -1.0153917 -0.34099376 -0.019617718 -1.2245139
0000d0 9c 4d a2 be 26 19 0c bf 54 e9 e7 be 0c fd 16 bf
       -0.31699836 -0.54725873 -0.45295203 -0.5897987
0000e0 5f 1b 86 bf 14 e9 a2 bf 18 a5 8c bf ad f9 5e bf
       -1.0477103 -1.272738 -1.0987883 -0.87099725
0000f0 02 2b 60 bf 83 82 c3 bf f0 22 44 be 11 47 92 bf
       -0.87565625 -1.5274204 -0.19153953 -1.1427938

bn2.running_var f4 [64]
000000 52 b3 69 40 7f 8e 35 40 45 93 8d 40 21 9e 5e 40
       3.6515698 2.8368223 4.424227 3.4784014
000010 9a 64 29 40 41 9e 0d 40 a9 c5 6d 40 d6 db 0a 40
       2.6467652 2.212784 3.7151892 2.1696677
000020 17 da 6d 40 80 c8 c0 40 d5 29 4f 40 a8 c0 87 40
       3.7164361 6.024475 3.2369282 4.2422676
000030 8f 19 4c 40 23 e3 9a 40 5d 38 88 40 fa 81 96 40
       3.18906 4.8402267 4.2568803 4.7033663
000040 0d eb f4 3f cc d9 fc 3f 9c 49 06 40 c6 2d 81 40
       1.9134232 1.9753966 2.0982428 4.0368376
000050 17 90 43 40 ed 5d cb 3f da a8 82 40 b5 9a 5d 40
       3.0556695 1.5888039 4.083112 3.4625676
000060 3e 36 86 40 7d 95 4a 40 11 8c 2e 40 72 ca 5e 40
       4.1941214 3.165374 2.727299 3.4811063
000070 90 86 73 40 0e 8c 90 40 47 63 4d 40 19 90 79 40
       3.805088 4.5170965 3.2091844 3.89942
000080 26 74 88 40 08 2a 00 40 3a ca 7d 40 50 f0 46 40
       4.2641783 2.0025654 3.965468 3.1084175
000090 f4 3d 96 40 af 43 58 40 bb bf 85 40 d8 6c 0d 40
       4.6950626 3.379131 4.1796546 2.2097683
0000a0 1f 52 75 40 42 63 73 40 0f ca 71 40 98 63 97 40
       3.8331373 3.8029332 3.7779577 4.7309074
0000b0 4c 84 84 40 12 30 a2 40 29 16 62 40 36 8b 8a 40
       4.1411495 5.068368 3.5326025 4.3294935
0000c0 63 d4 9c 40 98 cf a3 40 69 96 06 40 4a 2e 8b 40
       4.900926 5.119091 2.1029303 4.3494005
0000d0 ba fe 7a 40 9b 83 22 40 61 01 da 3f 48 f0 82 40
       3.9217973 2.5392826 1.7031671 4.091831
0000e0 dd 77 91 40 41 3a 90 40 07 af 08 40 17 0d a0 40
       4.5458817 4.507111 2.1356828 5.001598
0000f0 fb 12 91 40 8f 36 3c 40 85 7d 0e 40 87 d1 77 40
       4.533567 2.94083 2.226411 3.8721635

fc3.weight f4 [2, 64]
000000 4c 3e 92 bb 8b c9 5d bd 6a 3a bb 3d cd c7 1a bd
       -0.004462993 -0.054147284 0.09142001 -0.0377882
000010 7b 40 39 3d 5e 6e e3 bb cc c5 bf bc 98 d1 b1 3d
       0.04522751 -0.006940647 -0.023409747 0.08682555
000020 44 e9 ec bc 29 b5 da 3d c9 b0 b0 bd b7 38 e1 3d
       -0.028919823 0.10679085 -0.08627469 0.109971456
000030 b2 33 cf 3d 96 1e 02 bd 7f ec e3 3d a6 a3 6f bd
       0.10117282 -0.03176745 0.111290924 -0.058505677
000040 62 0b 9a 3d 11 c6 bd bd b8 4b 98 3d 90 2b 41 bd
       0.07521702 -0.09266294 0.07436317 -0.047160685
000050 54 4c cf bc b8 37 02 3c 9e 5c ba 3d 0e 8e ba 3d
       -0.02530495 0.007947855 0.090996966 0.09109126
000060 04 bc 87 3d b4 22 d8 3d 73 f3 3b bc 94 8d bc 3d
       0.06627658 0.10553494 -0.011471617 0.092066914
000070 f0 8c 92 bd 7c 6c 33 bd 5c d9 8f 3d 77 c5 a0 bd
       -0.07155788 -0.04380463 0.0702388 -0.078501634
000080 04 b0 8b bc 03 9e b6 3a fa 4e 4a bd 4f 1b c3 3d
       -0.017051704 0.0013932589 -0.049391724 0.09526693
000090 fd bf e6 3d 95 97 1a bd af 84 92 bd ca 25 c2 3d
       0.112670876 -0.037742216 -0.07154214 0.09479864
0000a0 39 66 f7 bc e2 b2 06 3e 85 46 1c bd 3c 5c c1 3d
       -0.03020011 0.13154176 -0.03815319 0.094414204
0000b0 96 e3 e7 3d 5b 03 cc 3d 95 9d f2 3d 0a 95 9e bd
       0.113227054 0.099615775 0.11846463 -0.07743271
0000c0 af b3 bd 3d 93 a2 2d bd b4 40 7b 3c 37 eb ae 3d
       0.092627876 -0.04239137 0.015335251 0.085409574
0000d0 f0 52 82 bc 43 bf 9c 3d 45 50 71 3c ff 27 49 bd
       -0.015908688 0.07653668 0.01472861 -0.04911041
0000e0 17 62 b6 3d c3 7d da 3d 32 15 3c 3d be c0 05 3e
       0.08905428 0.106685184 0.04591865 0.13061807
0000f0 86 ba b8 bd 18 5e a9 3d 90 ae c2 bd 68 45 b9 3d
       -0.090199515 0.082699 -0.095059514 0.09046441
000100 7a 55 bf bd 85 12 b0 bd 86 35 d4 3c aa d9 f9 bd
       -0.09342475 -0.08597282 0.025904428 -0.12199719
000110 bc 7c ba bc 1c cc fa bd ee bf cb bd af 6b fd bc
       -0.022764556 -0.12245962 -0.09948717 -0.030935137
000120 46 08 f2 bd 87 42 1e 3d 54 b3 9f bd 08 57 95 3c
       -0.11817984 0.038637664 -0.07797876 0.018229976
000130 26 b7 7f ba f8 b1 d4 bd 33 aa 0d 3d 19 8d ce bd
       -0.0009754769 -0.10385507 0.034586143 -0.10085506
000140 56 f5 4b bd ae 62 52 3d cc 19 12 bd 61 47 cb bd
       -0.049794517 0.05136364 -0.035669133 -0.09925724
000150 11 3e f2 bd 9e 47 d3 bd 83 b6 11 3d f9 f6 27 3d
       -0.118282445 -0.10316394 0.035574447 0.041007016
000160 a8 5e e9 3c c6 33 a6 3d af 79 ef bd cb 38 41 3a
       0.028487518 0.08115344 -0.11693131 0.00073708285
000170 8b a3 a9 bd ee f3 fb bd 6d a7 a6 3d 44 1d e3 bd
       -0.082831465 -0.12302385 0.08137403 -0.11089566
000180 35 37 c0 bd 40 91 c4 bd 65 99 fd bd 4a b0 2b 3d
       -0.0938553 -0.09598017 -0.12382773 0.04191617
000190 0a 4a 65 3d 91 9b c0 bd 73 fb b0 bd 34 42 5f bc
       0.055978812 -0.09404672 -0.0864171 -0.013626624
0001a0 9c a8 e6 bd f7 34 3e 3c 52 32 8d bd d7 71 0d 3d
       -0.112626284 0.0116093075 -0.068943635 0.034532394
0001b0 7f 89 87 3d f7 25 13 3d 8e 4c b7 3d fe b5 ea bd
       0.06618022 0.035924878 0.089501485 -0.114604935
0001c0 bc 3a cc 3c e4 77 bf bd 8a 92 d4 bd c2 24 95 3d
       0.02493035 -0.09349039 -0.103795126 0.072824016
0001d0 3c 69 04 be dd 23 d3 3d be d2 ac bd b5 f5 d8 bd
       -0.12930769 0.10309575 -0.084386334 -0.1059374
0001e0 0c 6a 40 3d 4d 45 56 3d ed 95 66 bd f9 aa 70 3d
       0.046976134 0.052312184 -0.056295324 0.058756802
0001f0 00 6f d9 bd 86 11 d6 bb 47 a3 2c bd 57 b5 a0 3d
       -0.10616875 -0.0065328507 -0.0421479 0.07847088

fc3.bias f4 [2]
000000 6b eb 17 3f 51 66 0c bf
       0.59343594 -0.5484362
