models/best_multiclass_nn_model.pth (torch, 122409 bytes, 14 tensors)

fc1.weight f4 [128, 154]
00000000: 8201 343d 7a64 3fbe d974 2abe 9b50 c7bc
00000010: fbe0 0c3e bbab df3e e7f8 623e e65c 733e
00000020: 2205 aabe 6c42 0dbe d8c7 debe 46db ac3e
00000030: a76c edbb 6197 afbe 946f 69be d883 9bbe
00000040: 3157 fbbe 6a89 86bd 521d 423e 4723 07bd
00000050: 1295 553e 63a0 033d d702 81bd ff2f cc3c
00000060: cd24 cbbd f065 2d3d 5eda d73b 7006 e8bd
00000070: 20b1 283e f809 a8bd f8a2 a9bc 7751 5f3d
00000080: 02a8 153d e0e4 dfbc ca7e c53d ff9f c83d
00000090: f77a 083e d2fb af3d fa2c b73c b52d a73c
000000a0: 94d2 47bd d3a3 aabd 4b43 c1bc 32a3 58bc
000000b0: 7fe0 80bc 9ed1 803d 5997 763d 8f24 87bd
000000c0: 0235 c1bd c82c e1bd c0e7 f2bd ec88 113e
000000d0: fbd0 083e c38f 40be 7a45 3fbe c981 133d
000000e0: d3d3 a33c b825 193d 4ccb 01bd 677b 96bd
000000f0: 8257 0e3e 569b 9bbb 48e5 10be d16f 07be
00000100: 1326 24be 0224 18be 2246 193d 0e31 97bd
00000110: ec0a 9dbd 0bc0 80be a0d6 55be c2f8 df3d
00000120: 63f8 c93d 4566 003e 7828 1d3e 086c 4c3e
00000130: 1a1b 6abe dd07 853e 6f10 1c3d dcc1 66bd
00000140: b5a8 3cbe c36a 683d cd5a 1a3c 1f75 193e
00000150: c3d9 1bbe 74c2 173e fb11 083e 429e 44bd
00000160: 20a0 49be 1489 0cbe c1d8 07bd 8944 2ebe
00000170: 1e9c fdbd 0f17 1b3c c34c 27be 3ba4 763d
00000180: ed8f c73d 26ea f8bc 406a 2e3e 8d0d b73d
00000190: 464c f6bd 0b0a 3bbe e464 393e 0b81 01bc
000001a0: 623c b4bd 2fd8 c4bc 1a53 8a3e 90d1 fabd
000001b0: 1972 5e3d 3aea adbd 293f 193e 7eb1 0cbe
000001c0: 5699 353d 7f33 8c3d 0f07 0dbe 000a c43d
000001d0: c87e 1ebe af58 de3d 9f7f c53d 687a 543e
000001e0: 94b1 833d d750 363e e748 35be d186 6f3e
000001f0: 5573 38be d663 cc3a f941 a6bd 41cb c9bc
00000200: 8260 843d cb28 b53a f7cd ba3e 0bd1 ff3b
00000210: 5abc 383e e6cb 9ebd 6706 4abe 8c28 853d
00000220: 8f37 1ebe 3406 023e 1427 4b3d 2dc2 2d3e
00000230: 6a35 09bd 3363 58be 005e 663d 5a77 e5bd
00000240: 6346 8dbd 5847 4bbe bc23 f33d 451e afbd
00000250: 2705 70be f1c5 fc3d c2dd a33b 1568 a33d
00000260: 04e3 3bbe 39ef 0bbe 8956 aa3b 9f43 be3f
00000270: 74a0 7cbe a272 803d 5aca 823d 12cb 1ebe
00000280: 5814 373e 3f45 3dbd 70ad 84be 38c3 233d
00000290: 3445 933e e260 81bd a029 aabd b784 f6bc
000002a0: b590 01be 4f64 483e 0352 1b3e 7d8e 61be
000002b0: d8c4 f83a 5e1d dd3d 4da6 3cbe 905b b13d
000002c0: 5d18 fc3d 27a0 36be b080 0abe 1e67 d53d
000002d0: f8ad 8f3d 8b6e b13d fbdb b13c 77c7 033d
000002e0: 68bf 853d 2ffa dc3d 4c82 88bd de7b e0bc
000002f0: 7c2b 81bc 6065 6d3d 9750 a6bd dfcb 1b3d
00000300: d7f3 1c3e 370d 06bc 20fa 333e 1836 223d
00000310: 6f42 913d e716 ebbd 09fe b43d ab67 e23d
00000320: 3f84 91bc cb03 283e 5b87 6e3d 92bb 5c3d
00000330: e446 a33b 2da6 f93d 8693 193e 8a57 c6bd
00000340: 3c94 653c 4d70 df3d f7fc d03d b95d 40bd
00000350: a512 833d f6a4 63be 0fb8 9d3c 73c5 d1bd
00000360: b4e2 0a3e d3cb 9e3c ab6c 07be 6dc9 863d
00000370: a719 533d df3a d63d ecad 1e3e 63cb 19bd
00000380: 5e74 bb3d 24e2 93bc 5129 c0bc a4db db3d
00000390: e5e0 8d3d 35c4 87bc 75e5 e13d dffe 3dbd
000003a0: 8735 253e 9d4c 1bbd e406 30be 8500 0a3e
000003b0: c952 4e3d e70f f13d 99b9 523e 3f4d db3d
000003c0: aa81 f03d 165e 3cbe 1c4e 363e ec9e 0abc
000003d0: 53dd f43c bb93 3e3e 5e23 123e 42ce c0bc
000003e0: 9831 083e b116 253d 1ae0 273e f68a ad3d
000003f0: 2ee3 88bd ecd2 c63d b885 0e3e b677 5d3d
0.04394675 -0.18690673 -0.16646136 -0.024330428 0.13757698 0.43685707 0.22165261 0.23765907
-0.3320704 -0.13794869 -0.43511844 0.33761042 -0.0072456184 -0.3429518 -0.2279647 -0.30374026
-0.4908996 -0.065691784 0.18956497 -0.032992627 0.20857647 0.03213538 -0.0629937 0.02492523
-0.099191286 0.042333543 0.0065873107 -0.11329353 0.16473818 -0.082050264 -0.020707592 0.05452105
0.036537178 -0.027330816 0.09643324 0.09796142 0.13328157 0.08592953 0.022360314 0.020407537
-0.048784807 -0.08332028 -0.023591658 -0.013222503 -0.015732048 0.06289981 0.06020293 -0.0659877
-0.094339386 -0.109948695 -0.11860609 0.14212388 0.1336097 -0.1880484 -0.18678847 0.036012445
0.019998467 0.037389487 -0.03168802 -0.07347756 0.13900569 -0.004748742 -0.14149964 -0.13226248
-0.16030149 -0.14857486 0.0374204 -0.07382403 -0.07668099 -0.25146517 -0.20882654 0.10936119
0.09861829 0.12539013 0.15347469 0.19963086 -0.22861901 0.25982562 0.03810161 -0.056337222
-0.18423732 0.05674244 0.009421063 0.14986084 -0.15219788 0.14820272 0.13288109 -0.04800249
-0.19689989 -0.13724166 -0.033165697 -0.17018332 -0.123832926 0.009465947 -0.16337876 0.060215216
0.097442485 -0.030385088 0.17032719 0.089381315 -0.12026267 -0.1826555 0.18104893 -0.007904301
-0.088005796 -0.024028866 0.27016526 -0.12247002 0.05430803 -0.08491941 0.149655 -0.13739583
0.044335686 0.068457596 -0.13772224 0.0957222 -0.1547805 0.10856759 0.096434824 0.2074982
0.06430355 0.17804275 -0.17703591 0.23391272 -0.18012746 0.0015593718 -0.08118052 -0.024633052
0.0646372 0.0013821361 0.36485264 0.0078069023 0.180406 -0.07753734 -0.19729005 0.06501874
-0.15450881 0.12697679 0.049597815 0.16968603 -0.033498205 -0.21131591 0.05624199 -0.11204405
-0.06898191 -0.19851434 0.1187205 -0.08550695 -0.23439465 0.12342442 0.005000801 0.079788364
-0.18348318 -0.13665475 0.005198304 1.4864386 -0.24670583 0.062718645 0.06386252 -0.15507153
0.17878854 -0.046208616 -0.25913572 0.039981097 0.28763735 -0.06317307 -0.083087206 -0.03009258
-0.12652858 0.19569515 0.15168004 -0.22027011 0.0018979562 0.10796617 -0.18422814 0.08660042
0.123093344 -0.17834531 -0.13525653 0.10420059 0.07015604 0.086636625 0.02171134 0.032172646
0.065306485 0.10789906 -0.06665477 -0.027402814 -0.015767805 0.057958007 -0.0812084 0.038036224
0.15327393 -0.008181862 0.17575884 0.03960237 0.07092749 -0.11478978 0.08837516 0.11054929
-0.017763255 0.16407697 0.058234554 0.05388982 0.004982816 0.12189899 0.14997682 -0.096846655
0.014012393 0.109100915 0.10204499 -0.04696438 0.064000405 -0.22230896 0.019252805 -0.102427386
0.13563043 0.0193843 -0.13225047 0.06581388 0.051538136 0.104604475 0.15496033 -0.03754748
0.09153055 -0.018052168 -0.023457201 0.107352525 0.06927661 -0.016573051 0.110300936 -0.046385642
0.161337 -0.03791486 -0.17190129 0.1347676 0.05037192 0.11770611 0.20578612 0.10708093
0.117434815 -0.18395266 0.17803234 -0.0084607415 0.029890692 0.18611042 0.14271304 -0.023535851
0.13300169 0.040304843 0.16394082 0.0847377 -0.06683956 0.09708199 0.13918197 0.054069243

fc1.bias f4 [128]
00000000: 8561 153d 25af 9c3c 1ae9 983d f4de 513d
00000010: f0ba e4bc 6250 ff3c cc56 d73c d57f 05bd
00000020: 5d3a 3c3c bb87 c3bc 2e42 8d3d 00cd 1bbd
00000030: 39c3 98bd 6e6b b0bc 914a 653d d6a4 1c3d
00000040: f701 2e3d 325d 27bd 9b00 3d3c 219d b03c
00000050: 1ba9 1c3d 233d c43b 775b 623d 6dcc 453d
00000060: 75d9 1abd 6cfc b93c b91f 843b 7162 7abd
00000070: d967 afbc 3b2d 603d ba1d 2dbc 6143 6d3d
00000080: 19e8 e6bc 10c1 0dbd ea77 e9bc 51e5 a7bd
00000090: 15a1 a83c f95b 993d 5bbc 3cbd 34b9 a13d
000000a0: df33 9b3c 6528 19bd 6797 b53b 079e 55bd
000000b0: 2ee9 7f3c 75f4 4d3d 7cb4 45bc 346f 283d
000000c0: 98bf 4dbd 32bb fcbc 71ba 71bd 0369 7e3d
000000d0: 44d9 a9bd d4fd 93bc cb86 473c ca36 c5bc
000000e0: 8a77 edbc 5a1e 3d3d 2a61 4039 6317 1dbc
000000f0: 1a1f 61bd 3466 0f3d 8187 693d 16bd 6e3b
00000100: f16a 13bd 99fd 8fbd 1999 82bd 128e f93c
00000110: 4a39 f5bc fa15 1e3c 5cc6 49bd 0952 4fbc
00000120: 3be4 953d 89ed af3c 27d7 abbd 7b14 d1bc
00000130: 58cf 313d 58e2 803d 2a57 a7bd 0698 0e3d
00000140: 96d3 863b 4a02 dabc cd64 adbb 5c9a babc
00000150: 325b 273d 084a f7bc c760 56bd 5fb5 dc39
00000160: af76 253d e0c1 a13a a2ef 713d 4540 96bd
00000170: 0cd0 e23c 7771 32bd ebab 3b3d 2dbd 86bd
00000180: 4460 9b3b c9d6 983d 9835 3abd b3a6 d83c
00000190: 3922 22bd fc02 333b 3d7d dcbc 7af5 bf3a
000001a0: 964a a83b 5785 d63c 59d3 9dbd 828b ac3c
000001b0: 6e46 0fbd e4e9 3fbd b997 1cbd fcc4 43bd
000001c0: 72da 25bc bca1 84bc babb 59bd f064 8e3c
000001d0: 13f5 243c 0fbf 013d 60d6 9a3d 76da 92bc
000001e0: 9e7c 9bbd 2eaa adbc aad9 8b3d 91d6 173d
000001f0: 271f 503d 46b1 74bd d561 1d3d 8c69 82bc
0.036469955 0.019126484 0.074663356 0.051238015 -0.02792117 0.03116626 0.026286505 -0.032592613
0.011488524 -0.023868432 0.068973884 -0.0380373 -0.07459111 -0.021535601 0.055979315 0.038243137
0.042482343 -0.040860362 0.011535789 0.0215593 0.03824721 0.0059887334 0.05526301 0.04829066
-0.03780504 0.022703372 0.004032102 -0.061129037 -0.021411823 0.054730635 -0.010566169 0.057925586
-0.028186845 -0.034607947 -0.028499562 -0.081980355 0.020584622 0.074882455 -0.046078067 0.07896653
0.018945633 -0.03739204 0.00554173 -0.05215266 0.015619559 0.05028196 -0.012066957 0.041121677
-0.050231546 -0.03085098 -0.059015695 0.062111866 -0.08293393 -0.01806537 0.012178133 -0.024073977
-0.028987665 0.046171524 0.00018346743 -0.009588095 -0.0549613 0.035009578 0.057013992 0.0036428622
-0.03599066 -0.07030792 -0.06376857 0.030463252 -0.029934544 0.009648794 -0.049261436 -0.012653836
0.07318922 0.02147557 -0.083906464 -0.025522461 0.04341063 0.06293172 -0.08170922 0.03481295
0.0041145785 -0.02661242 -0.0052915574 -0.022778682 0.040858455 -0.030186668 -0.052338388 0.00042096802
0.04039639 0.0012341104 0.059066422 -0.07336477 0.027687095 -0.04356524 0.04581825 -0.06579051
0.0047417004 0.07462842 -0.045461267 0.026446676 -0.03958342 0.0027315011 -0.026915187 0.0014645301
0.0051358445 0.026186628 -0.07706327 0.021062616 -0.034979276 -0.046853915 -0.03823063 -0.04779528
-0.010122882 -0.016190402 -0.053157546 0.017382115 0.010068196 0.03167635 0.0756042 -0.017926436
-0.07592128 -0.021199312 0.068286255 0.03706986 0.05081096 -0.059739374 0.038423378 -0.01591947

bn1.weight f4 [128]
00000000: 1036 593f 64a7 7a3f 0c53 7a3f 8db5 753f
00000010: 31c9 393f 93d3 5f3f 62bd 713f 57a1 543f
00000020: d2a3 623f 1e2c 5a3f d383 603f dc3b 5f3f
00000030: d53b 5d3f 987e 6b3f f62a 7c3f 8a26 643f
00000040: 0ef5 6a3f 94e4 6c3f b298 6a3f 61a6 743f
00000050: f619 7f3f 4adf 5d3f 8474 6b3f d303 4a3f
00000060: 907f 753f d806 7d3f 8d46 623f 3a97 6a3f
00000070: 556e 7b3f 840e 623f 5875 573f 5c3a 603f
00000080: 4a57 6d3f e0e7 483f 37b6 683f 0960 723f
00000090: 9426 793f 5c9b 6c3f 89e2 543f 060c 633f
000000a0: e345 803f 8934 463f 1125 693f a54e 783f
000000b0: 07d1 603f aae7 663f 1cf5 573f fc39 6f3f
000000c0: 4cac 643f b56e 813f 38e7 773f 0694 5e3f
000000d0: 8cec 6e3f b2a3 6f3f 93c2 583f 752d 643f
000000e0: 8eaa 623f 253c 4a3f 1aaf 573f 34c0 693f
000000f0: e1f1 7e3f 988a 5b3f 04da 643f 155c 7f3f
00000100: 87c9 6d3f e74e 693f ea86 813f ac18 543f
00000110: f626 6d3f 54d9 5b3f 2393 783f 8e66 6c3f
00000120: 7d37 743f bee0 6a3f 17d8 823f f493 5b3f
00000130: d4f4 7e3f 682f 6c3f 54ed 623f f566 4b3f
00000140: af65 723f 3dcf 713f 8816 5f3f bfaf 563f
00000150: 2628 813f 8e32 3b3f a23d 833f c98d 693f
00000160: 8cc8 553f bf8a 613f 0805 603f 63e1 683f
00000170: 8aee 663f 4d54 473f 1eef 5a3f 31e4 4c3f
00000180: 4e47 613f 3696 683f 8d73 733f 6409 523f
00000190: 0974 733f 0e9d 763f ccfb 3b3f 33a9 6d3f
000001a0: 8d72 743f 38b6 5f3f 47bb 5a3f 2871 743f
000001b0: 68f2 653f 9c90 5e3f 3168 6c3f c494 743f
000001c0: 67d7 6c3f 0ff1 5b3f 48c4 3e3f 9573 833f
000001d0: 1169 673f a986 6b3f fedf 793f 09ad 783f
000001e0: 775f 6a3f 388e 5f3f b6a1 703f cbda 813f
000001f0: 182c 823f 784b 673f 27a0 663f 989d 633f
0.8484812 0.9791167 0.9778297 0.9598015 0.7257262 0.8743221 0.944296 0.83058685
0.8853122 0.8522357 0.8770115 0.87200713 0.8641942 0.9199004 0.98503053 0.89121306
0.91780174 0.9253628 0.91639245 0.95566374 0.9964899 0.8666884 0.91974664 0.78912085
0.9589777 0.9883857 0.883889 0.91637003 0.9821523 0.883034 0.8416343 0.8758905
0.9271132 0.78478813 0.9090304 0.9467779 0.9732449 0.9242456 0.83158165 0.8869022
1.0021328 0.7742391 0.91072184 0.96995 0.8781895 0.9019724 0.8435838 0.9344785
0.89325404 1.011191 0.96837187 0.86944616 0.9332969 0.93609154 0.84671897 0.8913186
0.88541496 0.78998023 0.8425156 0.91308904 0.9958783 0.8575835 0.89395165 0.9974988
0.9288563 0.9113602 1.0119298 0.82850146 0.92637575 0.8587849 0.9709951 0.92343986
0.9539717 0.9174918 1.0222195 0.85772634 0.9959233 0.92259836 0.88643384 0.79453975
0.94686407 0.94456846 0.87143755 0.8386192 1.0090377 0.73124015 1.0253184 0.9123197
0.83509135 0.88102335 0.8750768 0.9096891 0.9020773 0.7786301 0.85521114 0.8003569
0.8799943 0.90854204 0.9509819 0.8204558 0.9509893 0.96333396 0.73431087 0.928363
0.9548729 0.8738742 0.8544201 0.9548516 0.8982301 0.86939406 0.92346483 0.955395
0.9251618 0.859147 0.7451825 1.0269648 0.90394694 0.9200235 0.9760741 0.9713903
0.9155192 0.87326384 0.9399675 1.0144895 1.0169706 0.9034953 0.90088123 0.88912344

bn1.bias f4 [128]
00000000: 72c6 0fbf ac81 3ebf 3af0 30bf cbea 9cbe
00000010: f89b 0fbe 3260 e9be 2a05 c3be e83c babe
00000020: c75e acbe a2db efbe 43a1 13bf 3cfa 0cbf
00000030: f47b 9ebe 06d2 fbbe d10a d2be 2d92 01bf
00000040: 8a93 93be c134 06bf c75c acbe 7c35 17bf
00000050: ce8f 2abf 682e e1be 20c2 dabe 3775 edbe
00000060: 0906 5fbe f05f f5be b70d 19bf 0dbc fcbe
00000070: 64c1 bebe 940c e7be 74f9 fcbe b2e4 a2be
00000080: 42bf e1be ec9d b2be 0b72 2abf 52d6 e6be
00000090: bc4b d7be 37d8 f8be 09a2 b6be a611 babe
000000a0: 2425 41bf f259 b6be be9d cdbe 275a d6be
000000b0: d55f 89be 5478 98be 9ebf d6be cb64 edbe
000000c0: defc 11bf 31c7 8dbe dafd a1be 05cf d0bd
000000d0: e72e c0be 6f2e c4be e5c5 06bf 0622 c6be
000000e0: 24ba 8ebe e86a 96be d9b9 e7be b7aa 85be
000000f0: 08ed 0dbf d45f acbe b7e0 18bf f435 cabe
00000100: d3f0 8cbe 6412 ffbe 6dc5 67be f981 a9be
00000110: 152b 20bf 023c e0be 6eb2 1ebf 4545 1bbf
00000120: de19 b8be a265 f6be 6a9b 1fbf 02c7 93be
00000130: 845b bebe cc16 cbbe 8e3f 74be 4183 aabe
00000140: 4bb0 d6be b154 12be c11c aebe 9286 d6be
00000150: 3bc9 eabe 15f8 5abe e82a 0cbf 583b e7be
00000160: 9213 07bf a02c 10bf f125 9cbe f3d6 0cbf
00000170: 936a b7be 26e5 eabe 5e99 e6bd 17db a9be
00000180: 3c2a fabe be7d 32bf 5f83 dfbe f28a f2be
00000190: 3776 acbe 613a 04bf e32c 98be c782 23bf
000001a0: baa2 ecbe 86bb b3be ab29 aebe 52f2 b6be
000001b0: f659 adbe 2948 f2be cf48 d7be e284 e4be
000001c0: dd89 ffbe 5728 e8be a2c0 b9be 9bc4 37bf
000001d0: 5eba b1be 3c58 23bf 78fa d0be 994a b7be
000001e0: 940b 9dbe 3f21 f2be 889b d3be 8895 dcbe
000001f0: 5e6f b4be 9870 cebe 4705 12bf 2201 11bf
-0.5616218 -0.74416614 -0.69116557 -0.30647883 -0.14024341 -0.45581204 -0.38089877 -0.36374593
-0.3366606 -0.46847254 -0.5766794 -0.5506933 -0.30953944 -0.49183673 -0.41023877 -0.5061367
-0.288235 -0.52424246 -0.33664533 -0.59065986 -0.6662568 -0.43980718 -0.4272623 -0.4637849
-0.21779646 -0.47924757 -0.5978655 -0.4936222 -0.3725692 -0.45126784 -0.49409068 -0.31815106
-0.4409123 -0.3488611 -0.66580266 -0.45085388 -0.42049968 -0.4860246 -0.35670498 -0.3634159
-0.754473 -0.35615498 -0.4015941 -0.41865656 -0.26830927 -0.29779303 -0.41943067 -0.4636596
-0.5702647 -0.27691033 -0.31638986 -0.10195736 -0.37535784 -0.38316676 -0.52645713 -0.38697833
-0.2787639 -0.29378438 -0.45258978 -0.26106808 -0.55439806 -0.3366686 -0.5971789 -0.39494288
-0.27527484 -0.49818718 -0.22633906 -0.33106974 -0.6256574 -0.43795782 -0.6199101 -0.6065257
-0.35957235 -0.48124415 -0.6234652 -0.28862768 -0.37179196 -0.3966583 -0.23852369 -0.33303264
-0.41931376 -0.1429012 -0.34006312 -0.41899544 -0.45856652 -0.21383698 -0.5475297 -0.45162463
-0.52764237 -0.5631809 -0.30497697 -0.55015486 -0.35823497 -0.4587795 -0.11259721 -0.33174965
-0.48860347 -0.6972312 -0.43654916 -0.47371632 -0.3368394 -0.5165158 -0.29721746 -0.63871425
-0.462179 -0.35104007 -0.34016165 -0.3573175 -0.33857697 -0.4732068 -0.42047736 -0.44632632
-0.4990987 -0.45343277 -0.3627978 -0.7178437 -0.347125 -0.6380651 -0.40816092 -0.357991
-0.30672896 -0.4729099 -0.41329598 -0.43082833 -0.35241216 -0.40320277 -0.570393 -0.56642354

bn1.running_mean f4 [128]
00000000: c616 9c3d ff03 88bc 3021 a53d 40ec ab3d
00000010: b04b abbb 0781 88bb bd8f 313c 6cd9 83bd
00000020: fa2e 8b3d 3739 b43c b876 083d d9fa 5dbd
00000030: dbaa e0bc 157f c4bc a264 5b3d 5eb9 ec3c
00000040: de4b 313d f1e5 8dbd 5f8b e03b 593b 193d
00000050: e21c 8c3c 00ea d4bc dc3e 1f3d 2d7a 933d
00000060: c3af 60bd 4ea8 063d 987a 9bbb 2e93 96bd
00000070: 65a9 85bc 4439 313d 71d6 8fbc da79 953d
00000080: c4f2 95bc 6c75 a4bd adf5 3fbd fc24 e0bd
00000090: 1214 ae3a ae32 953d b4b9 a8bd 8d5f ab3d
000000a0: ae9d b23c 8071 edbc 7643 8f3d 611e 92bd
000000b0: 7789 4b3d 857b a83d 0733 4f3d 2ce3 9f3d
000000c0: c00b 0dbd 9d19 343d 6498 7cbd f729 313d
000000d0: d204 7bbd b682 2cbd 8005 21bc 1d7a ffbc
000000e0: a3db 57bc e549 ca3d c45d 313d 2051 8fbd
000000f0: 30ab 7cbd 2230 9c3d 1ef0 9e3d 73c8 6a3c
00000100: d63c 44bd 6188 9bbd 401f cbbd b241 1b3d
00000110: 6c5a a5bc d508 4cbd 6c7e a5bd 00c4 b639
00000120: 6e98 893d 4bda 823d f0ee 02be 4fa0 82bc
00000130: 0a36 4a3d e331 463d e309 e0bd ca7d 3a3c
00000140: 42ea 083c 0ce0 35bd 9255 b3bc dc13 2cbd
00000150: 8070 e23c 8033 b838 5ced bfbd aa2c 3f3d
00000160: 9f78 3f3d c8f6 bd3a 58d4 9c3d f17d d9bd
00000170: 8c69 c63c 8c23 4bbd c97c 9cbc 8afb e1bd
00000180: 013c 35bd 32fb 693d 749b 2cbd 548d fbbb
00000190: f8a6 8abd e68b 71bc a7e8 b23c 0aca 3e3d
000001a0: c86c 8f3a 6ab7 743c cbe0 b7bd 3928 833d
000001b0: 909b 65bd 608c 75bd d0e0 52bd 4716 cabc
000001c0: 6fc6 9bbc 8443 9fbb 1015 94bc ba58 123d
000001d0: ad97 92bc 78d9 c93c c5f4 bc3d 7590 1a3d
000001e0: cc2b e3bb f4e8 7fbd c397 fb3c a984 8f3d
000001f0: 6e1f 303d 7dc5 dbbd e003 143d 2d64 30bd
0.07621531 -0.016603468 0.08062971 0.083946705 -0.0052275285 -0.004165772 0.0108374925 -0.06437954
0.067960694 0.021999938 0.033316344 -0.054194305 -0.02742522 -0.023986379 0.053562768 0.028896984
0.043285243 -0.069286235 0.006852552 0.037410114 0.017103616 -0.025990486 0.038878307 0.072010376
-0.05485512 0.03287535 -0.004744839 -0.07352291 -0.016316125 0.043267503 -0.017558308 0.07298632
-0.018304236 -0.08030209 -0.046865154 -0.10944554 0.0013281128 0.07285057 -0.08238545 0.08367834
0.021803703 -0.028984785 0.06995289 -0.071347006 0.049691644 0.082266845 0.050585773 0.078070015
-0.034435034 0.04396974 -0.06166877 0.04325291 -0.061283894 -0.042116843 -0.009827971 -0.031186158
-0.013174924 0.098773755 0.043302312 -0.06997895 -0.061686695 0.07626368 0.077606425 0.014330017
-0.04790958 -0.075943716 -0.0991807 0.03790445 -0.020184718 -0.04981311 -0.08080754 0.00034859776
0.06718527 0.06389292 -0.1278646 -0.015945582 0.049367942 0.04838742 -0.10939386 0.0113825295
0.008356633 -0.04440312 -0.021891389 -0.042011127 0.027641535 8.783396e-05 -0.093714446 0.046673454
0.046745893 0.0014493102 0.07657689 -0.106197245 0.02422025 -0.049594447 -0.019102471 -0.110343054
-0.044246677 0.057124324 -0.04214044 -0.0076767597 -0.06770128 -0.014742827 0.021839453 0.0465794
0.0010942454 0.014936307 -0.08978423 0.06404156 -0.05605656 -0.059948325 -0.05148393 -0.024668826
-0.019015519 -0.0048603434 -0.01807645 0.035729147 -0.01789459 0.02463983 0.092263736 0.03773542
-0.006932711 -0.06247802 0.030712014 0.07007725 0.042998724 -0.10731027 0.036136508 -0.043064285

bn1.running_var f4 [128]
00000000: 24c8 3a40 0a53 9040 cf25 4a40 c5d2 5340
00000010: 951b a140 6ab6 3640 bda8 6940 ba15 6040
00000020: fe37 5a40 31bd 4640 f986 3540 a3d9 2b40
00000030: 952b 4640 61d8 4040 38f9 5940 71ab 4140
00000040: d3a3 7a40 c4e8 2840 0f21 7940 fdba 7f40
00000050: 7a38 6b40 6430 7140 0dae 4d40 6c87 2a40
00000060: 0e6a a040 fcfe 6140 95c7 8740 8f6e 6240
00000070: 9e56 2840 bfce 3540 1754 6940 db47 6540
00000080: 25cf 3d40 f6f5 6540 677d 4e40 3fcd 2440
00000090: 472d 7c40 1ea9 1e40 2063 8840 f962 3440
000000a0: 6175 5a40 97df 4440 bf5f 2740 ae1d 6c40
000000b0: c485 6140 2e2a 7540 de93 4740 77bc 6d40
000000c0: b4ce 5d40 06fe 8040 fdc2 bd40 3089 c040
000000d0: 59e0 4c40 5dc7 c140 ce85 4440 b7bc 7040
000000e0: 0a01 3b40 83b6 5740 7f87 1d40 e253 6b40
000000f0: 0a5b 5040 0135 4140 932c 4b40 ffd7 8440
00000100: 543d 5840 efa4 3540 50d0 9240 a8b5 3040
00000110: 0436 d140 ee1e 8a40 1cb7 4340 d60a 7c40
00000120: 714e 6140 da93 4840 315b 8140 c41d 3340
00000130: 75c8 2f40 bf04 4d40 1e93 6f40 63f2 7240
00000140: faf1 1a40 185f 8a40 f35f 6c40 964b 6140
00000150: 9e9d 5c40 2296 7040 6f98 6a40 c7df 5540
00000160: 2427 2840 2b24 3140 eeac 6040 c039 2e40
00000170: 8d3c 5740 3f6d 3940 10f5 9840 6e39 6b40
00000180: ce60 6940 6445 2b40 3aba 4840 af49 5f40
00000190: 877a 7d40 521e 8340 2c98 5a40 b487 1140
000001a0: 80ca 3040 fbe5 5340 afbd 2f40 5b5a 4340
000001b0: 4c0e 5140 7d65 4540 a15e 5d40 c73f 8140
000001c0: 119c 2e40 3fb8 3b40 b951 5b40 add9 7340
000001d0: aa08 5d40 ce0e 7140 bfbe 3540 f061 3a40
000001e0: 5876 5040 1b21 8740 d579 5740 fee3 3a40
000001f0: b6f2 9540 2f6b 2d40 9499 3840 66ce 4b40
2.9184656 4.5101366 3.1585577 3.3097394 5.034617 2.8548837 3.650924 3.501326
3.4096675 3.1052973 2.836363 2.6851585 3.09641 3.0132067 3.405836 3.026089
3.916249 2.639207 3.8926427 3.9957879 3.675322 3.7685785 3.2137482 2.6645155
5.012946 3.531188 4.243113 3.537998 2.6302867 2.8407438 3.6457574 3.5825107
2.965768 3.5931373 3.226404 2.5750272 3.9402635 2.479072 4.2621 2.8185408
3.4134142 3.0761468 2.6152189 3.6893115 3.5237894 3.8306994 3.1184 3.714628
3.4657412 4.0310087 5.9300523 6.0167465 3.201193 6.0555863 3.0706668 3.7615182
2.9219384 3.3705146 2.461395 3.6769948 3.2555566 3.01886 3.1745956 4.1513667
3.3787432 2.8381917 4.587929 2.7610874 6.5378437 4.3162756 3.058051 3.9381614
3.5204127 3.1340241 4.042382 2.7986917 2.74661 3.2034147 3.7433543 3.796044
2.421019 4.324108 3.6933563 3.5202384 3.4471202 3.7591634 3.6655538 3.3417833
2.627389 2.7678325 3.5105548 2.7222748 3.3630707 2.8972929 4.779915 3.6753802
3.6465335 2.6761103 3.1363664 3.4888723 3.9606035 4.097451 3.4155378 2.2739077
2.7623596 3.310912 2.7459524 3.0523899 3.2664976 3.0843194 3.4589007 4.0390353
2.7282755 2.9331205 3.426863 3.8101609 3.4536538 3.7665286 2.8397672 2.9122276
3.2572231 4.222791 3.366811 2.9201655 4.685878 2.709667 2.8843737 3.1844726

fc2.weight f4 [64, 128]
00000000: 856e 203d 5464 773e c7f6 e2bd 5a9a 233d
00000010: 7551 70bd 35ca 1dbd f38d 233d b8cf 63be
00000020: 72eb 0ebd f4ae 8a3d 6ccb e23c 7254 dbbd
00000030: 1c28 073d d079 463d 4768 84bc af3f 58bc
00000040: a7bc a53d 5369 e53d 70b8 293c b0fb 0b3d
00000050: 7072 ae3d d880 213e 3fab e13c 6ff4 8b3d
00000060: ec04 01bc a803 383e ad4f 2e3e d204 89be
00000070: 9de5 a4bd df91 9dbd 93a1 9bbc 1b6f 3fbe
00000080: 3f52 8abd 993b 9d3c 19b6 853d 92e7 0b3e
00000090: ac8d 10bd e17b d43d 0c91 3e3e 8edc 95be
000000a0: f099 763e 0f13 e93c feba 5dbe bb2b 28be
000000b0: 3f1a 6bbe eb0d 13bd e976 97be c276 4b3e
000000c0: aaaf aabd ee70 a43c 3953 3abd 7364 0cbc
000000d0: 6327 f9bc d847 2e3d b5f1 52be 1049 033d
000000e0: 5477 59be ae64 adbd f039 413d 7566 0e3e
000000f0: ee5f b9bc 8a3d 1bbe eb49 ff3d 3e4b 8bbe
00000100: 1831 bf3d a442 133e a3af 8dbe 51bd afbe
00000110: c044 ae3d c4fc df3d f201 cfbc 5ea7 fd3d
00000120: 0a2c 9ebd a39a 043c 4b5b 173e c019 b83d
00000130: 6258 adbe 77fb 17bd 9d4d f93d 00aa 1e3e
00000140: 8642 573e f277 45be fe4e 53be 9832 21bc
00000150: a4da aabd ed33 91bd 277f 283e bd59 b53d
00000160: 089d 5c3e f02d 8fbd 3d8f 033d 3a02 c7bc
00000170: 28b6 4b3e 7387 aebd 23f3 0ebd 55c4 393e
00000180: 01d4 343e 63eb 0f3e d9df e3bd f49d c43d
00000190: 5b99 bfbe 713c 993d 6871 8a3d 0fb8 263e
000001a0: 32b1 2ebd 0d40 dbbd 4bbb 21be e062 3dbd
000001b0: 8901 333d 1be9 c4be 8c3c b53d 04d3 853d
000001c0: abb7 473e 3890 693d 553b 5abd 959e 15be
000001d0: fc7c 3bbe 3a20 fe3d b2a9 dbbe 0092 92be
000001e0: 72e0 42be c877 3e3e d7cd c0be 8e63 26bd
000001f0: bdc1 beba 4265 cbbd 115b 673d 4244 92be
00000200: 5e21 c7bd 8406 083d f222 8ebe bb20 9fbe
00000210: 65f5 eabd dde8 e73b 74db 94be 210f cabd
00000220: bce9 64be 105f 203d 39b6 b33d 6c1c 69bd
00000230: 7f42 f3be 1cf4 90be 2b52 99be 28ad 653d
00000240: 81e9 e2bc 573e cabd 80c0 c9bd ce7a d8bd
00000250: 4c74 2fbe b4f4 10bb 39ae 31be 8735 d4be
00000260: 34e9 96be 9e20 28be 930e c7bd 48a4 cd3d
00000270: fb94 593d 95c3 96be d6dc 833d c8e5 35be
00000280: c861 023d d232 003e 77ea 35be dd55 acbd
00000290: 902a 18be 282a aebd 2248 be3d 46db 7dbd
000002a0: 761e cfbd 20af 683b 707a 5cbc 1aeb 84b9
000002b0: 01d2 34be 4d4e e8bb 67a1 61bb 2c44 0bbd
000002c0: 5f57 a9bd 6078 fb3c 51b7 25be 7cc2 06bd
000002d0: 94f0 463c 86d4 12be c548 693d 50fc 4dbe
000002e0: eaff 26bd 4c14 f0bc 58de 3fbe f981 eabb
000002f0: e043 cc3c c8cc 95bc 80b4 0fbe b57a fa3c
00000300: 3a61 64be 169c 22be 9273 ba3d c137 0bbe
00000310: 4570 64be 4bed 69be 3b65 81bd 4a8f 66be
00000320: 1070 0fbe 488a 99be 6b0c 12be a1dc 73be
00000330: 1034 6c3d 2535 b9be 2c32 16be c00c babe
00000340: 9c29 52be 7606 333d 4cce 623d 2331 3dbe
00000350: fdd0 79bd 4807 6fbe 6507 34be 6b3f 70be
00000360: bf78 84be 8b6d 06be bbc7 503d 6164 c2bd
00000370: 64cf cdbc c514 60bc 4f15 8c3d 92b4 133e
00000380: d346 8cbe 2dc1 09be 8f41 d6be 63d9 59be
00000390: e347 cc3d 2f69 1dbe ac09 813d 8585 55be
000003a0: 5dc6 10bc ca69 e63d 11d0 ad3d f4bd 273d
000003b0: a87f 9fbe aaff a9bd 2e9e 73be efa5 29bc
000003c0: 9b9e 88be 34a6 84be c4fd e0bd 11e9 833c
000003d0: 2b09 2b3d d372 013e e8cd 793d 0781 863c
000003e0: 836d 753c 94cb 35bc b1a0 bf3d c3ad bc3c
000003f0: 6dd8 4cbd e90c 23bd 0215 97be e5b4 a1bb
0.0391679 0.24159366 -0.11082225 0.039942123 -0.058671433 -0.038522918 0.039930295 -0.22247207
-0.034892507 0.06771651 0.02768489 -0.10709466 0.032997236 0.048456013 -0.016163005 -0.013198777
0.08092623 0.112017296 0.010358915 0.034175575 0.08517921 0.15771806 0.027547477 0.068337314
-0.007874709 0.17970145 0.17022581 -0.2676149 -0.08051608 -0.07693838 -0.018997943 -0.18694727
-0.067539684 0.019193457 0.06528873 0.13662556 -0.03529136 0.103751905 0.18610018 -0.29269832
0.2408216 0.02845147 -0.21653363 -0.16422932 -0.22959231 -0.035901945 -0.2958291 0.19869521
-0.083342865 0.02007338 -0.045489524 -0.008568871 -0.030414289 0.042548984 -0.20600016 0.0320521
-0.21236926 -0.08466469 0.047174394 0.13906272 -0.02262875 -0.15160194 0.124652706 -0.27205843
0.09335536 0.1438089 -0.27673063 -0.34324124 0.08509207 0.10936883 -0.025269482 0.123854384
-0.077232435 0.008093509 0.14780919 0.089892864 -0.33856493 -0.03710505 0.12173007 0.15494537
0.2102147 -0.19284037 -0.20635602 -0.009838723 -0.08342484 -0.07089982 0.16454755 0.08855007
0.21544278 -0.06991184 0.032119025 -0.024293054 0.19893706 -0.08521929 -0.034899842 0.18141301
0.17658998 0.14054637 -0.1112668 0.0960044 -0.37421688 0.074822314 0.06759912 0.1628115
-0.042649455 -0.10705576 -0.15794103 -0.046236873 0.043702636 -0.38459095 0.08849439 0.06534389
0.19503658 0.057022303 -0.05327924 -0.14611275 -0.18309397 0.124084905 -0.42902905 -0.28627014
-0.19030932 0.1860038 -0.37657043 -0.040622286 -0.0014553588 -0.09931423 0.056483332 -0.28567702
-0.09723161 0.03320934 -0.27761036 -0.3107966 -0.114725865 0.00707732 -0.2907368 -0.09866167
-0.22354788 0.03915316 0.087749906 -0.05691187 -0.4751167 -0.2831124 -0.29945502 0.056073338
-0.027699234 -0.09875172 -0.098511696 -0.10570298 -0.17134207 -0.002211851 -0.17351617 -0.41447088
-0.29474795 -0.16418692 -0.09719577 0.100411 0.053120594 -0.29446092 0.064386055 -0.17763436
0.031831533 0.12519386 -0.17765222 -0.084148146 -0.14859986 -0.085041344 0.09291102 -0.061976694
-0.10113232 0.0035504773 -0.013456926 -0.00025352166 -0.17658235 -0.0070894123 -0.0034428479 -0.03400056
-0.08268618 0.030697048 -0.16183211 -0.03290032 0.012142319 -0.14338884 0.056954164 -0.20115781
-0.040771402 -0.029306553 -0.18737161 -0.007156607 0.02493471 -0.018286124 -0.14033699 0.03057609
-0.22302714 -0.15879855 0.091040745 -0.13595487 -0.22308452 -0.22844426 -0.06318136 -0.22515598
-0.14007592 -0.29988313 -0.1426255 -0.23814632 0.05766684 -0.3617336 -0.14667577 -0.36337852
-0.20523685 0.043707334 0.05537252 -0.18475775 -0.060990322 -0.23342621 -0.17580946 -0.23461692
-0.25873372 -0.13127725 0.050971728 -0.09491802 -0.025123306 -0.013676827 0.06840002 0.14424351
-0.27397785 -0.13452597 -0.41846892 -0.21274333 0.09974649 -0.15372156 0.06300673 -0.20851715
-0.008836356 0.112506464 0.08486951 0.040952638 -0.3115208 -0.08300717 -0.2379081 -0.010354503
-0.26683506 -0.25908053 -0.10985902 0.016102346 0.04175679 0.12641458 0.060987383 0.016418947
0.014979723 -0.0110959 0.09356821 0.023032075 -0.050011087 -0.039807234 -0.29508215 -0.0049348944

fc2.bias f4 [64]
00000000: 0d32 023d 9bd2 813d 4626 e23c de91 b93d
00000010: 8e23 95bd 9684 843c d9d8 34bc f59b 9bbd
00000020: fe0b cb3b 8956 f0bc 1375 9abc dbc9 fabc
00000030: 2403 483d 8bc5 4c3d 023e 5d3b fd90 8bbd
00000040: 8d2b 07bc d66c 87bd f1bb 5fbd a4c3 563d
00000050: 00ed 27bd 77f8 713d 1542 c1bb 29d6 b5bb
00000060: ebc1 a0bc 4924 08bd 1ae9 4b3d 331f 9a3d
00000070: dcc9 adbd fd00 87bd b6c2 783d bab1 9b3a
00000080: afd5 76bd ada5 d93c 3d95 193c 9511 7a3c
00000090: af2b e23c 2b4d a4bc 7b1b 9b3d fe79 b43d
000000a0: ccc4 0d3d 077d d43c 750a b6bc 7229 bb3c
000000b0: b3b2 8abb 0b8f 20bd 4a40 bbbd ee4f e33c
000000c0: c7ca 4dbc 8edd a63d 000e 793d 1a4f 68bd
000000d0: 698f 07bd ded3 2fbc 357c 863d ab7b aabd
000000e0: 62ba 213d 77a4 963d 7df9 813d 8250 2b3d
000000f0: 57c3 a63c bdc3 373c e7cd eebc 9787 423d
0.031786013 0.06338998 0.02760614 0.09061025 -0.07282172 0.016176503 -0.011038029 -0.07598106
0.006196498 -0.029338138 -0.018854653 -0.03061383 0.04883112 0.04999308 0.0033758883 -0.06814764
-0.008250129 -0.06612556 -0.054622594 0.05243267 -0.040997505 0.059074845 -0.00589777 -0.0055492115
-0.019623717 -0.03323773 0.04978285 0.07525482 -0.08485767 -0.065919854 0.060732566 0.0011878528
-0.06026238 0.026568258 0.00937396 0.015262981 0.02760872 -0.020056328 0.07573601 0.08812331
0.03461151 0.025938524 -0.022221783 0.022846911 -0.0042327284 -0.039198916 -0.091431215 0.027748074
-0.012560553 0.08147727 0.060804367 -0.056716062 -0.03309575 -0.010731665 0.06566659 -0.08324369
0.03948439 0.07355588 0.06346414 0.041824825 0.020356817 0.011216101 -0.029150916 0.04749259

bn2.weight f4 [64]
00000000: 9149 2d3f 1157 433f 300f 423f 8a8a 463f
00000010: 705f 413f 8397 4b3f 1a15 2c3f bea7 433f
00000020: b3d9 423f 8619 533f 0f2b 413f ae14 413f
00000030: db47 4e3f 4a64 353f 8f8e 4e3f 0de7 3a3f
00000040: d0aa 3a3f 661a 253f 2f73 3a3f 4b64 3a3f
00000050: 7e84 2b3f 93d7 393f 25fd 4b3f 90a8 483f
00000060: 6b82 463f 1d60 373f 0da6 2d3f ed4d 423f
00000070: 0852 473f 0a62 1b3f 8af8 4b3f dbd3 463f
00000080: 2b7f 2c3f f47d 4e3f 4f03 293f e9ad 423f
00000090: b4c1 2d3f d8fd 293f 3526 433f fd8f 4d3f
000000a0: 7ac7 493f df76 2e3f 042c 403f 94bb 3a3f
000000b0: 4a3c 3a3f b49c 413f d446 433f 7732 3e3f
000000c0: 9754 363f 2b08 4a3f f458 4f3f c7d6 3f3f
000000d0: 6a71 493f def2 383f 4f15 443f 2985 423f
000000e0: 0aed 3c3f 9396 3e3f 70d9 3a3f f42b 373f
000000f0: 016e 3d3f 533e 443f 2697 423f 14e2 3f3f
0.6769038 0.7630473 0.75804424 0.77555144 0.7553625 0.79528064 0.672197 0.7642783
0.7611343 0.8246082 0.7545633 0.7542218 0.8057839 0.70856154 0.8068628 0.73008806
0.7291689 0.64493406 0.72832006 0.72809285 0.6699904 0.72594565 0.7968314 0.78382206
0.7754275 0.7163103 0.678315 0.75900155 0.77859545 0.6069647 0.79676116 0.77667016
0.6738154 0.8066094 0.66020674 0.76046616 0.6787369 0.6640296 0.76230174 0.80297834
0.7882 0.6815013 0.7506716 0.7294247 0.72748244 0.75629735 0.7627995 0.74295753
0.71222824 0.78918713 0.80995107 0.749371 0.7868868 0.72245586 0.76595014 0.75984436
0.7379919 0.7444851 0.72988033 0.7155144 0.7399598 0.766576 0.76011884 0.7495434

bn2.bias f4 [64]
00000000: cad0 10bd 6c0e d4be 4d8e 18be 0c22 10be
00000010: df00 08be 95b1 c0be a4ef c5bc 6495 60bd
00000020: 0204 8bbe 5af7 c8be c675 7abe 76e4 edbe
00000030: 7d32 c7be 13db 07be 4b44 c5be 61be d2bd
00000040: ff78 ccbe 30e0 3d3d 0907 6dbd f2fb ebbd
00000050: 1ad1 b1bb b112 d2bc 6242 98be a338 3bbe
00000060: d7b1 59be ce61 e0bd 0df2 d53b 2a38 bdbe
00000070: c602 0cbe fb7a ab3d 1e79 cabe 90e0 73be
00000080: 558a 3abd d845 b0be b41b 50bd 1bea 93be
00000090: a694 17be f30e 30bd d016 9ebe 972a c5be
000000a0: f2a8 3dbe ce53 23be f09c f4bd 13e0 55be
000000b0: 8a63 bebc c2c9 88be 0a0c 96be d1bf 2abe
000000c0: 95c9 d3bd a435 59be c000 95be 3ecf 54be
000000d0: bba6 c5be bc1d 9cbd c65d 81be 0c51 a0be
000000e0: 476b d2bd 30cd d5be 4fdd 9fbe 690a 23be
000000f0: 18f8 95be b504 afbd 7294 48be 1c69 10be
-0.035355367 -0.41417253 -0.14898033 -0.14075488 -0.13281582 -0.37635484 -0.024162121 -0.05482997
-0.27151495 -0.39251214 -0.2445899 -0.46463364 -0.38905707 -0.13267164 -0.38528666 -0.10290218
-0.39936063 0.04635638 -0.057868037 -0.11522664 -0.005426538 -0.025643678 -0.29738146 -0.18283324
-0.21259247 -0.10956155 0.006529099 -0.36956912 -0.13672933 0.08373066 -0.3954553 -0.23816133
-0.04554208 -0.34428287 -0.05080767 -0.28889546 -0.14802799 -0.042983007 -0.3087678 -0.38509056
-0.18521479 -0.15949938 -0.11943996 -0.20886259 -0.023240823 -0.2671643 -0.2930606 -0.16674735
-0.10341183 -0.21211869 -0.29102135 -0.20782182 -0.38603768 -0.07622859 -0.25266856 -0.31311834
-0.10274368 -0.41758108 -0.31223533 -0.1592194 -0.29290843 -0.0854582 -0.19587877 -0.14102596

bn2.running_mean f4 [64]
00000000: 1936 2ebf 7e75 0bc0 88db 7bbf 1861 e3bf
00000010: bbc3 01c0 92e1 02c0 06af 99be 700b f9be
00000020: ca1f 81bf 1bcb e4bf c726 3ebf 7af9 a1bf
00000030: 6daa debf 17d7 8bbf 3fc9 19c0 9049 86bf
00000040: fc08 83bf 50fc 33bf b08b 7fbf cbf9 ebbf
00000050: e2db 0ebf b564 66bf 0bec a4bf c301 ffbf
00000060: dda8 b1bf 2c08 8abf df73 d0be ddd0 e4bf
00000070: ac24 16c0 6f9c ddbe 5e78 17c0 8ef5 f4bf
00000080: 1e22 3fbf 7d59 ffbf 95ae 25bf 6a3b c0bf
00000090: 7e7b 9ebf 61e5 ecbe 5be6 02bf 470b efbf
000000a0: f7a9 febf 4d17 80bf 5f57 d7bf 6a41 2cbf
000000b0: c0c7 63bf dee2 8dbf 9883 9dbf 8e9b 79bf
000000c0: 3dce 87bf c4d6 95bf 3ca6 04c0 7a5b b2bf
000000d0: bc56 d1bf 2ac6 29bf c53f 38bf 5242 cabf
000000e0: 4e4a 07bf 42de f6bf e5df 2ebf dc5b 86bf
000000f0: 1ad6 ecbf eb51 17bf 8045 e7bf bce1 aebf
-0.68051296 -2.1790462 -0.98381853 -1.7764006 -2.0275714 -2.0450177 -0.30016345 -0.4864154
-1.0087826 -1.7874483 -0.7427792 -1.2654259 -1.739576 -1.0925015 -2.402908 -1.04912
-1.0237117 -0.70306873 -0.9982252 -1.8435606 -0.55804265 -0.89997417 -1.2884535 -1.9922413
-1.3879658 -1.0783744 -0.40713403 -1.787624 -2.3459883 -0.43283412 -2.3667216 -1.9137437
-0.74661434 -1.9949185 -0.64719516 -1.5018132 -1.2381437 -0.46268752 -0.51132745 -1.8675317
-1.9895619 -1.0007111 -1.6823539 -0.67287314 -0.8897667 -1.1084859 -1.2305784 -0.9750298
-1.0609814 -1.1706166 -2.0726461 -1.3934166 -1.6354594 -0.66318 -0.71972305 -1.5801489
-0.52847755 -1.9286578 -0.68310386 -1.0496783 -1.8502839 -0.5910937 -1.8068085 -1.3662639

bn2.running_var f4 [64]
00000000: 0556 7a40 a083 7240 924b 9540 1ca2 9340
00000010: af16 9440 4f86 4840 b00b aa40 6dd9 a340
00000020: de8f 8340 109f 8840 afe3 d53f e420 1a40
00000030: cf57 6b40 59fb 9f40 1f43 b840 e15b c440
00000040: 1083 c43f 301f 7140 68af 9d40 05f0 7b40
00000050: b21c 5040 0e3a c340 bb0c 7e40 955e 9640
00000060: 16e2 a740 6608 a340 86b7 6440 4238 4340
00000070: e70b 9240 e3c6 9440 c82c 9c40 daed a140
00000080: 579a 8440 83f0 b740 57d9 8940 af4d 1240
00000090: 914c 0a40 d57f 5440 2766 1240 e8ef a740
000000a0: 4129 9240 f9af 0140 f401 8d40 ec83 c53f
000000b0: f2b1 ce40 8b5b 5340 546d 1a40 96f5 aa40
000000c0: 3f5a 0140 cd56 a740 5ae7 b940 a2e7 8940
000000d0: a1f8 7140 3314 8240 fbe5 3d40 821c 9440
000000e0: 18ea 8940 394b 8140 8c20 2740 1060 8a40
000000f0: 6133 6b40 7ea2 bb40 34bd 8b40 bb37 2540
3.9115002 3.7892838 4.665475 4.6135387 4.627769 3.1331975 5.3139267 5.120291
4.111312 4.269417 1.6710109 2.4082575 3.6772344 4.999432 5.7581935 6.1362157
1.5352497 3.7675285 4.927662 3.9365246 3.2517514 6.1008368 3.969527 4.6990457
5.2463484 5.094775 3.5737014 3.0503087 4.563953 4.649278 4.8804665 5.0602846
4.1438403 5.7481093 4.3077807 2.2859914 2.1609232 3.3203022 2.287485 5.2480354
4.567536 2.0263655 4.4064884 1.5430884 6.459222 3.3024623 2.4129229 5.3424788
2.0211332 5.229346 5.809491 4.3095255 3.7808 4.0649657 2.967162 4.62848
4.309826 4.0404325 2.6113615 4.3242264 3.675011 5.8635855 4.366846 2.5815265

fc3.weight f4 [3, 64]
00000000: 563d 353d 218c 3fbe 1b4d be3d 5a36 afbd
00000010: 432c e5bd 6f87 74be 0e8e 5f3d 7a27 77bc
00000020: f49e 893b d7a9 2ebd 7d3c 333d cfb2 bb3a
00000030: 53f6 09be ffa3 bc3d a3a3 d5bd 5f7d af3d
00000040: f902 5b3d ac71 993c 51f3 d13d 1aff 2abe
00000050: 5716 233d 8bf4 933d cedd 7d3c 0855 4fbe
00000060: 9a84 c13c ed4f f13d 2d8c c23c f800 83bd
00000070: 243a 37be f3fe e33c a799 b2bd a81f fbbd
00000080: cde8 8d3d 5062 0bbe a351 4f3d 09af 38bd
00000090: cc28 87bd aa8d 8b3d 4c1d 173d c4db 1fbe
000000a0: c036 42be 017e 1bbd a47b e2bd e598 82bc
000000b0: d5ad 7b3d c9d5 e13d e293 af3d 3074 d13d
000000c0: 13d3 eebc a635 a83d 5657 35be 4211 a03d
000000d0: db93 81bd 0eae c33c c221 b53d 13f0 763d
000000e0: c425 4c3d 0280 74bd 0e93 a53d f743 aa3d
000000f0: 8cc0 37bd f869 33bb 816e 1abe ed6e 37be
00000100: 53c8 c03c feb5 d2bc d026 3a3b 98bd af3d
00000110: 9698 683d 5c8b 4dbd 21f4 aabb 5f7f 13bd
00000120: 11a4 04be c84d d3bd ebfa b5bd 73c5 e3bd
00000130: 86ef 0cbe 9d55 083d d3a4 aebd 20ad a83c
00000140: bfad 99bd a00a e93a de1a 953d 3a5b 7b3c
00000150: 1b78 673c e173 353c f792 07be f154 27bc
00000160: cffa c3bd 9716 1f3d 738c 2a3c 0943 a0bd
00000170: c5d9 1abd 8d78 493c 73d8 8ebd 0380 693c
00000180: e8f3 2f3d c328 36bd e037 943b dccd 203e
00000190: 5101 983c 1567 043d cb9f b2bd 32d0 afbd
000001a0: 433e d739 9100 283d 8413 743d c96c dabd
000001b0: 322c cb3b 9502 62bc 937b a1bd 6893 413b
000001c0: fac3 253d c4b8 c8bc 32b3 e1ba 2a19 56bd
000001d0: 8318 0fbe 106f ecbb 2453 11bd 6cef bdbd
000001e0: 096a 26bc 13bd 60bd 0e86 b1bd 6854 92bc
000001f0: 9742 513d 960e 6dbd 7403 003d 1a44 b93c
00000200: e6f1 0bbe 4949 5e3d 482f 98bd 231b e33d
00000210: 1dcc a23d c1da 193d 0576 06be 4359 5dbe
00000220: 62d7 f6bd 4495 ca3d db15 313c 211e c23d
00000230: 786d 213d a4ea a6bd 096c a83d 7d28 ccbd
00000240: 6f8b 853d ef98 17be fe34 fabd e33d 8a3c
00000250: 0d06 16be fab2 c5bd 98f3 bfbd b1a9 693a
00000260: 1d3d dbbd d82b 7cbd 2da4 26be 0286 be3d
00000270: f712 afbb fb37 02be 2879 d03d b0a5 a83d
00000280: 6add ccbd f745 853d 2d61 0abe 2836 513b
00000290: 1cc9 28be fa55 eabd fe78 9e3d 7866 5d3d
000002a0: 6896 793c e4dd 01be db79 b93d 9d7f 0a3d
000002b0: 5442 dcbd ba5c b4bb 134e 3c3d dee7 46bc
000002c0: 02b4 0fbe 7552 83bd b4ab 8b3d d92e 68bc
000002d0: 9365 203d fc41 2ebe a497 6d3d 70ff 7fbd
000002e0: 8d6d 02be da3b 323e 29e1 d73c f0a6 8abd
000002f0: 965c 1b3e 755c 4abe 3bbf 4c3d 6ee4 00bc
0.044247948 -0.18705799 0.092920505 -0.085552886 -0.11190083 -0.23879789 0.054578833 -0.015085096
0.004199857 -0.04264244 0.043758858 0.0014320257 -0.13472871 0.09210967 -0.10431602 0.085688345
0.05346963 0.01873096 0.10251487 -0.16698876 0.039816227 0.07224377 0.015494777 -0.2024728
0.0236228 0.11782823 0.023748482 -0.06396669 -0.17893273 0.02783153 -0.08720713 -0.12261897
0.06929169 -0.13611722 0.050614964 -0.0450888 -0.06599578 0.0681413 0.036893174 -0.15611178
-0.18966198 -0.037961964 -0.11058739 -0.015942046 0.061445076 0.110271044 0.08573128 0.10227239
-0.029153382 0.082133576 -0.17709097 0.07815792 -0.06327029 0.023886707 0.088443294 0.060287546
0.049840704 -0.05969239 0.08084689 0.083137445 -0.04486136 -0.0027376395 -0.15081216 -0.17913409
0.023533022 -0.025721546 0.0028404482 0.08581084 0.056786142 -0.05018173 -0.0052170907 -0.036010142
-0.12953211 -0.1031757 -0.088857494 -0.11121645 -0.13763246 0.033284772 -0.085275315 0.020590365
-0.075038426 0.0017779656 0.07280515 0.015341574 0.0141277565 0.011074991 -0.13239656 -0.010213123
-0.09569322 0.038839903 0.010409462 -0.07825286 -0.037805337 0.012296808 -0.06974878 0.014251712
0.042957217 -0.044472467 0.0045232624 0.15703529 0.018555315 0.03232487 -0.08721884 -0.08584632
0.00041054384 0.041016165 0.059588924 -0.1066528 0.006200337 -0.013794561 -0.07884898 0.0029537324
0.0404701 -0.024502166 -0.0017219542 -0.052270092 -0.13974194 -0.007215388 -0.03547968 -0.09274182
-0.010157117 -0.054867815 -0.08668147 -0.017862514 0.051088896 -0.05787524 0.031253293 0.022615481
-0.13666496 0.05426911 -0.07430893 0.1108916 0.07949088 0.037562136 -0.13130958 -0.21616082
-0.120528 0.098917514 0.010808433 0.09478403 0.03941104 -0.08150223 0.08223731 -0.0996866
0.065207355 -0.14804433 -0.12217139 0.016875213 -0.14650746 -0.09653278 -0.09372634 0.00089135306
-0.10705016 -0.06156525 -0.16273566 0.09302904 -0.005342837 -0.12716667 0.10179359 0.082347274
-0.10003169 0.06507485 -0.13513632 0.0031923149 -0.16482967 -0.1144218 0.07737921 0.0540528
0.015233614 -0.12682301 0.09056445 0.033813108 -0.107548386 -0.005504218 0.045972895 -0.012140242
-0.14033511 -0.06412212 0.06819859 -0.014171326 0.03915937 -0.17017359 0.058005944 -0.062499464
-0.12737103 0.17405644 0.026352482 -0.06770122 0.15172037 -0.19761832 0.04998706 -0.007866962

fc3.bias f4 [3]
00000000: d979 18be cd0f ab3d 08c9 593c
-0.14890231 0.08352623 0.0132925585
