models/best_ordinal_nn_model.pth (torch, 122023 bytes, 14 tensors)

fc1.weight f4 [128, 154]
000000 56 50 65 3d e2 79 1a 3e 90 7c bd be 69 a4 0c be
       0.055984817 0.15085557 -0.37009096 -0.13734592
000010 30 98 29 3e 18 69 3a 3e 48 ef ae be 53 2b 06 3e
       0.16561961 0.18204153 -0.34166932 0.13102464
000020 44 1a 07 be f8 8b 83 be a7 10 75 be 2a 16 42 be
       -0.13193613 -0.25692725 -0.23932134 -0.18953767
000030 86 99 09 be 8b 63 e8 be 3f 11 36 be 77 ca 21 3e
       -0.13437471 -0.45388445 -0.17780016 0.1579989
000040 94 df d9 bd cb 0b 38 bc 02 ff aa 3c fd 5f 86 bc
       -0.10638347 -0.01123328 0.02087355 -0.016403193
000050 7e fa 99 bd 21 29 90 3d 70 41 ba bd 4a af c8 bd
       -0.07518481 0.07039095 -0.090945125 -0.09799059
000060 6e 06 1c 3c 99 3f 99 bd e0 3c e4 bd 54 aa 25 bc
       0.009523017 -0.074828334 -0.111444235 -0.01011141
000070 ca f5 32 bd 1c ae 96 3e 46 aa f8 bd ac 20 10 3d
       -0.043691434 0.2942971 -0.12141852 0.03518741
000080 6f 71 07 be 21 00 99 ba 8c 39 35 be 3c 95 bc bd
       -0.13226865 -0.0011673012 -0.17697734 -0.09208152
000090 19 3a b7 bd 5e ea 98 bd 80 d3 fd bd 54 73 3d be
       -0.08946628 -0.07466577 -0.12393856 -0.18501025
0000a0 86 31 31 3e 7c 29 29 3d f5 f9 39 be e0 5d 1a 3d
       0.17304048 0.04129933 -0.18161757 0.037687182
0000b0 c9 e6 0a 3d 9b fc 01 be 09 bd d1 bd 49 16 cf bd
       0.0339115 -0.12694018 -0.10241134 -0.101116724
0000c0 33 5b a0 bc bb da 84 3d 3c 48 2c be 4a 23 6a be
       -0.019574737 0.06487032 -0.1682443 -0.22865024
0000d0 a9 4b 7b 3d 87 9d ac 3d 31 58 9a 3d 7d a0 02 be
       0.061351452 0.084284835 0.075363524 -0.12756534
0000e0 c0 dc 58 be aa be a8 bd c6 8f 48 3e 8c 73 32 3e
       -0.2117796 -0.08239491 0.19586095 0.1742689
0000f0 0a ff 44 be b5 4f f3 3d 6a 78 d9 bd 00 2c d0 bd
       -0.19237915 0.11880437 -0.1061867 -0.10164642
000100 c5 f7 02 bc 3d 8b ee 3d 5d b1 3b be a9 3b e8 bd
       -0.007993643 0.11647651 -0.18329377 -0.11339504
000110 4f 85 82 bd 7b 07 da 3d 00 6f d1 3b b6 30 6a 3d
       -0.06373083 0.10645958 0.006391406 0.05717536
000120 b8 c2 12 3d 3c 99 02 be 4a 43 3a be f3 45 44 be
       0.03583023 -0.12753767 -0.18189731 -0.19167309
000130 63 66 38 3d c6 5f 4a bd d2 8a e8 3c ee 1b 3b be
       0.04501952 -0.049407743 0.028386507 -0.18272373
000140 b1 5a d2 3d 47 55 0c bd 6b 30 9b bd be 77 51 bd
       0.10271204 -0.034261014 -0.07577594 -0.051139586
000150 3a 79 a0 bd fd 23 da bd 32 6e 9b 3d a2 3d 4b 3e
       -0.07835622 -0.106513955 0.075893775 0.1984773
000160 a1 fb 53 3e 11 ba ec bc 8b df 22 bd 4a 50 1a 3e
       0.20701458 -0.028897317 -0.03976397 0.1506969
000170 05 62 83 bd af 56 3c 3d 6c 1f cc bc dc e7 fb bc
       -0.0641518 0.045981105 -0.024917327 -0.030750208
000180 cf df 59 be 27 b0 2f bc 8f 1a 3d bd d0 48 e3 bd
       -0.21276782 -0.01072315 -0.046167906 -0.11097872
000190 8e e1 4f 3e f0 f5 03 bd c2 09 a7 bd 4d 0c 89 bc
       0.20300886 -0.032216966 -0.08156158 -0.016729498
0001a0 e6 9a dc 3d 67 eb 25 be 6f 29 69 3d 4d 95 1a 3e
       0.10771732 -0.1620308 0.05692428 0.15096016
0001b0 66 30 81 be 78 a8 0d bc dd b4 53 3d 2f af 13 be
       -0.25232238 -0.008646123 0.051686157 -0.14422296
0001c0 1a c7 b3 bd 56 fa 32 be 15 27 46 be d0 17 94 3d
       -0.0877821 -0.17478308 -0.19350846 0.072311044
0001d0 32 7c 00 be cd 4f 86 bd 7c 3a 50 3d 10 d4 97 bd
       -0.12547377 -0.065581895 0.050837025 -0.074134946
0001e0 7c 3a 9c 3d c4 a2 47 be 68 37 33 bc 10 1c 14 3d
       0.076283425 -0.19495684 -0.010938503 0.036159575
0001f0 17 3c c9 3d e5 36 94 bd b5 1b a2 3d 24 30 f0 bd
       0.09825914 -0.07237033 0.07915441 -0.11727932
000200 ba b4 e1 3d 75 ed 15 3e 96 26 34 be 61 40 14 bc
       0.11020799 0.14641364 -0.17592844 -0.009048552
000210 12 a8 c4 3c 15 64 19 be 81 f8 80 bc 93 35 11 be
       0.024005923 -0.14979585 -0.015743496 -0.14180593
000220 04 ee c8 3d 4a 6c 4c be be a1 37 be 51 8c 2a bd
       0.09811023 -0.19963184 -0.17932793 -0.041637722
000230 aa c6 24 3e 25 94 64 3e b4 1a 91 3d 98 6c 6d 3d
       0.1609141 0.22322138 0.07085171 0.05796489
000240 de 16 0c be 1c 31 1e be 00 d7 7e bd 81 70 16 be
       -0.13680598 -0.15448421 -0.06221676 -0.14691354
000250 7b 7b 78 3d 5d 6a aa bd 48 e2 26 be f3 a5 90 be
       0.060664635 -0.083210684 -0.16297257 -0.2825161
000260 a2 11 e9 3d c5 04 a8 3d 80 37 b7 3e a3 4a e5 3d
       0.11380316 0.08204035 0.3578453 0.111958764
000270 3f 96 83 be 3d 98 21 3e 32 94 11 3e ff fa 05 3f
       -0.25700566 0.1578073 0.14216688 0.52336115
000280 4f 84 da be df cd 56 3d 96 b7 9a bc ab 4c af 3e
       -0.42679068 0.052442428 -0.018886369 0.3423818
000290 f6 54 db 3e 88 87 33 3c d5 48 06 3e 6f a7 00 3d
       0.42838258 0.010957606 0.1311372 0.031409677
0002a0 12 6a c2 3d 00 1f ba bd a1 d6 7a bc 96 f3 03 3e
       0.094928876 -0.09087944 -0.015309961 0.1288589
0002b0 22 57 4d be a9 4a ab 3d 49 97 ce 3d fa 87 8e bd
       -0.2005277 0.0836385 0.10087449 -0.06959529
0002c0 f2 43 6a be 56 71 6f 3d 1f 6e 90 bd 51 d9 43 bd
       -0.22877482 0.058457695 -0.07052254 -0.04781467
0002d0 eb f2 61 3d 72 bf f6 bd ae 89 af 3c a0 92 13 3c
       0.055163305 -0.12048234 0.021427955 0.009007126
0002e0 96 0f 12 be d0 70 bb 3a 52 c9 03 3e 13 dd 35 3e
       -0.14263758 0.0014300589 0.12869766 0.17760114
0002f0 f1 9a 25 bd 72 14 83 be b1 24 ac 3c 72 60 2d 3e
       -0.040430967 -0.25601536 0.02101359 0.16931322
000300 9a 7a cc bd dc 4c d2 3d f0 c9 92 3e e6 28 aa 3a
       -0.09984322 0.10268566 0.2866969 0.0012982159
000310 28 cc 59 bd b5 87 61 3d 3b c1 08 be d6 18 8e bd
       -0.053173214 0.05506106 -0.13354962 -0.06938331
000320 56 46 d8 3d 95 a3 2b bd 21 dc d1 3d 56 3c 1b 3e
       0.105602905 -0.04190405 0.102470644 0.15159735
000330 e0 19 3f 3a ca 07 21 3e 14 43 cd bc 97 6a ae bd
       0.00072899275 0.15725628 -0.0250564 -0.08516424
000340 a3 97 c4 3c c6 36 80 3b a0 df d9 bd 3d 16 26 be
       0.023998087 0.0039127795 -0.10638356 -0.1621942
000350 64 da 09 bd 88 c2 02 be 37 74 1e be 59 67 a1 3a
       -0.03365554 -0.1276952 -0.1547402 0.0012314125
000360 16 45 38 3d a6 32 a6 3d a0 b3 30 3e 89 51 13 3d
       0.04498776 0.08115129 0.17256021 0.03596643
000370 cb 28 d0 bd 5c e0 63 3d 78 36 bd bc 0c 8a 15 3e
       -0.10164031 0.055633888 -0.023097262 0.14603442
000380 68 4b 55 bb 56 b3 0b be e4 0b 26 3e 95 e0 70 be
       -0.0032546166 -0.1364263 0.16215473 -0.23523171
000390 e1 d7 18 be 3f 70 ca bd 21 1d e7 bd 35 83 61 be
       -0.14926101 -0.098846905 -0.11284853 -0.22022708
0003a0 27 f8 01 3e be 9f f6 bc cb d8 6d bc 56 7e 7c be
       0.12692319 -0.030105468 -0.0145170195 -0.24657568
0003b0 b4 cb fa 3d 44 03 3e 3d cf f2 29 3d 72 ef 9a bd
       0.122458845 0.046389833 0.041491326 -0.07565202
0003c0 4c 9d d9 bd 54 98 16 bd 29 e2 40 bd ca e7 1e 3d
       -0.10625705 -0.036766365 -0.047090683 0.03879527
0003d0 9f 95 b5 bd 38 74 47 3d 22 8d 72 bd 7b 94 39 be
       -0.088664286 0.04869482 -0.059216626 -0.18123047
0003e0 81 74 19 3d ee c8 f4 bd bf 30 3f bd b5 37 5a 3d
       0.037464622 -0.11952387 -0.046677347 0.053275783
0003f0 b6 41 b1 3d 49 67 4b 3e 43 f6 f0 bd 53 35 89 bd
       0.086551115 0.19863619 -0.11765721 -0.06699624

fc1.bias f4 [128]
000000 68 a2 1b bd 46 76 ae bc da c3 99 3d 0f b9 46 3d
       -0.03799668 -0.021296632 0.07508059 0.04851633
000010 66 f2 3c 3d 0f dc 92 3c 4e 82 88 3d dc 49 5a bd
       0.046129607 0.017927198 0.06665479 -0.053293094
000020 3e c5 b5 bb 3b 95 0f bc fe 2b 1b 3d 16 e1 a5 bc
       -0.0055471947 -0.008763607 0.03788375 -0.02024893
000030 5a 94 fb 3c 34 e4 fe ba 06 fe 6f 3a 3a 49 22 bc
       0.030710388 -0.0019446672 0.0009154979 -0.009905154
000040 df f3 80 3d ed 22 79 3d 4c f8 48 3d 20 56 80 3d
       0.06296515 0.060824323 0.04906492 0.06266427
000050 e8 ac 81 3d 77 d8 60 bd 2b ae a4 3d 8c f2 3a 3d
       0.063318074 -0.054893937 0.080410324 0.045641467
000060 98 60 8b 3c 58 3b a1 3d 30 a2 9e bc d7 a0 93 bd
       0.017013833 0.07872647 -0.019364446 -0.07208412
000070 92 bb a2 3b 40 24 15 bd 7d c4 93 bd 32 9f 60 bd
       0.004966208 -0.036411524 -0.072152115 -0.05483932
000080 c9 9f 57 bd ef c5 c3 3b 58 ca 05 bd 6c 9e 9d bc
       -0.052642617 0.0059745233 -0.032663673 -0.01924058
000090 2d d4 a0 3a b4 e8 4b bd 74 f6 43 3d b8 f5 b6 bc
       0.0012270265 -0.04978247 0.047842458 -0.022333965
0000a0 58 ff 1d bd 2b 8f a4 bd 00 89 8c bd 54 5d a0 3d
       -0.038573593 -0.080351196 -0.06862068 0.07830301
0000b0 d1 ef a1 bd 91 85 db 3c 9f 57 a7 3d bc a5 8a bd
       -0.079070695 0.026797088 0.08171009 -0.067698926
0000c0 0c 56 d1 ba 9a ef 03 3d f9 0a 71 bd c4 25 3c bc
       -0.0015971079 0.032210924 -0.058848355 -0.011483613
0000d0 3b 4f 95 3d 01 86 1b bd 56 6a 89 3d d1 3c d4 bc
       0.07290503 -0.037969593 0.06709735 -0.025907906
0000e0 d1 4e 52 bd b3 8a b9 bc f2 d6 19 bc 67 77 65 3d
       -0.051344696 -0.022649145 -0.009389626 0.056022074
0000f0 67 1f 8c bd 2d fe 98 ba 66 6a 6c 3d ce cc d9 bc
       -0.06841927 -0.001167243 0.057718657 -0.026586916
000100 aa 5d 99 3d f5 4e 34 3c 79 0c a1 bd f6 df 71 bd
       0.07488568 0.011005153 -0.07863707 -0.059051476
000110 81 f4 51 bd 67 5a 4d 3d f8 b5 19 3c 5d 32 50 3c
       -0.051258568 0.050135043 0.009381764 0.01270732
000120 4e ae 87 3c 28 be 7b bd 88 51 7a bd ae b1 80 3c
       0.016562607 -0.061460644 -0.06111291 0.015709724
000130 da d4 ed 3c 35 ed 2c bc 73 af f8 3c 4f 35 23 bb
       0.02903216 -0.010554601 0.030357098 -0.00249036
000140 a1 9f a0 bd 58 9f 57 3d 3b ca bc 3b e3 d7 66 3b
       -0.07842947 0.052642196 0.0057614124 0.0035223893
000150 1f d6 5a bc 22 2f 64 bd 7d 44 d5 bc 79 82 8f 3d
       -0.0133567145 -0.05570901 -0.026033634 0.070073076
000160 a4 b2 05 bc b8 8a 87 3c ba 39 96 3c 05 bf b5 3c
       -0.008160267 0.016545638 0.018338073 0.022185812
000170 11 d9 83 3d 5f f1 86 bd 25 8e 2b 3d e5 ed 22 3d
       0.064378865 -0.06589007 0.041883606 0.039777655
000180 30 15 1f 3d 7c b2 6e bd c8 12 ec bc ea 5a 84 3d
       0.038838565 -0.058275685 -0.02881755 0.06462653
000190 c1 55 95 bd a6 3e 9a bd a0 8e 91 3d ea 43 5d 3d
       -0.07291747 -0.075314805 0.07107282 0.054019846
0001a0 c1 b0 74 bd 3b 43 b4 bc 5b 2c e5 3c 9f 91 73 bd
       -0.05973888 -0.022004714 0.027975252 -0.059465047
0001b0 0b 39 b9 3c 02 1a 2a bd b2 4f 71 bd c4 a1 d8 ba
       0.022610208 -0.04152871 -0.058913894 -0.0016527702
0001c0 94 56 98 3d 6e 2a 98 bb 3a f3 f0 bc 0a b8 5f bc
       0.074383885 -0.00464373 -0.029412854 -0.013654718
0001d0 57 1d e9 bc ba 35 88 3d 0c a2 87 3d a5 69 ab 3c
       -0.028456373 0.066508725 0.06622705 0.020924399
0001e0 2d 9d 8b bc ba 56 73 3d 2e 64 2c 3c 7a 13 9a 3d
       -0.01704272 0.05940888 0.010521932 0.07523246
0001f0 df cc 8b 3c 56 88 8d bd 74 07 c3 bc f3 8d 97 3b
       0.017065464 -0.0691077 -0.023807265 0.004625076

bn1.weight f4 [128]
000000 56 47 78 3f db 2a 63 3f a4 45 72 3f 97 50 67 3f
       0.9698385 0.8873727 0.94637513 0.90357345
000010 f2 37 53 3f 2f 66 7b 3f ce 9f 68 3f 40 de 84 3f
       0.8250724 0.98202795 0.9086884 1.0380325
000020 76 6c 81 3f 98 e1 70 3f a5 b7 80 3f 5e 3a 6d 3f
       1.0111225 0.9409423 1.0056044 0.92667186
000030 bb 27 60 3f 81 97 64 3f f7 0a 37 3f 36 0f 6a 3f
       0.87560624 0.89293677 0.71501106 0.9142946
000040 be 88 7a 3f 9e e2 78 3f bc af 6d 3f 05 8f 81 3f
       0.978649 0.9722079 0.92846274 1.0121771
000050 b5 bd 72 3f 54 86 51 3f ee 2c 6a 3f 94 c2 5f 3f
       0.9482072 0.81845593 0.9147481 0.8740628
000060 52 01 5a 3f cb b6 66 3f 3f f2 83 3f c3 4e 7c 3f
       0.85158265 0.9012267 1.0308303 0.9855768
000070 04 70 81 3f 3e a8 7a 3f 48 6c 71 3f c3 ee 80 3f
       1.011231 0.9791297 0.9430585 1.0072864
000080 1f 04 7d 3f 96 2f 5c 3f e5 13 7a 3f a9 47 7b 3f
       0.98834413 0.8601011 0.97686607 0.9815622
000090 69 2c 74 3f 69 38 57 3f 2e d4 7c 3f 83 61 79 3f
       0.95380265 0.8407045 0.9876126 0.97414416
0000a0 8c 0c 67 3f c6 06 72 3f bb 6c 74 3f f4 36 6f 3f
       0.9025352 0.94541585 0.9547841 0.93443227
0000b0 26 f8 71 3f 25 9a 82 3f 08 53 75 3f 4a 3d 3d 3f
       0.9451927 1.0203291 0.9582982 0.73921645
0000c0 4a 10 84 3f 30 09 81 3f 9b 04 55 3f f7 05 75 3f
       1.0317471 1.0080929 0.8321015 0.95712227
0000d0 96 71 70 3f c6 e6 6f 3f 5e 69 75 3f 91 90 76 3f
       0.9392332 0.9371151 0.958639 0.9631434
0000e0 23 ee 79 3f b8 4c 61 3f 2e 16 7b 3f 0c 5c 6c 3f
       0.9762899 0.8800769 0.9808072 0.9232795
0000f0 c8 77 7b 3f c8 e5 61 3f 00 65 6d 3f 02 9e 74 3f
       0.98229647 0.88241243 0.9273224 0.955536
000100 81 2e 6d 3f af 22 73 3f 8b ed 73 3f 60 a6 72 3f
       0.92649084 0.949748 0.95284337 0.9478512
000110 ed 98 6d 3f c0 ed 64 3f 64 cc 7d 3f 48 ea 75 3f
       0.9281147 0.8942528 0.9914 0.9606061
000120 05 69 7f 3f 95 e0 79 3f 69 86 7e 3f 0c 68 83 3f
       0.9976962 0.9760831 0.99423844 1.0266128
000130 2e 43 69 3f b7 91 42 3f fc 85 30 3f 43 89 79 3f
       0.91118133 0.76003593 0.68954444 0.9747507
000140 bd eb 78 3f 13 11 45 3f dc c4 66 3f b3 8b 7c 3f
       0.9723471 0.7697918 0.90144134 0.98650664
000150 0a 74 7b 3f 7a 1e 68 3f 99 86 73 3f 49 8a 55 3f
       0.98223937 0.90671504 0.95127255 0.8341413
000160 14 4d 75 3f 6f 27 72 3f 3c 39 80 3f c4 6a 73 3f
       0.95820737 0.9459142 1.0017467 0.95084786
000170 93 9c 61 3f 45 fa 82 3f 41 c9 64 3f e3 71 80 3f
       0.8812954 1.0232626 0.8936959 1.0034755
000180 88 a8 7c 3f 64 7c 49 3f 5a 68 76 3f c5 b3 70 3f
       0.9869466 0.7870543 0.9625298 0.94024307
000190 27 39 7a 3f a4 27 4f 3f 01 ef 72 3f c9 d7 6f 3f
       0.9774346 0.8091986 0.9489594 0.93688637
0001a0 e6 80 48 3f c5 87 42 3f 03 a6 38 3f 50 20 6f 3f
       0.78321683 0.7598842 0.72128314 0.9340868
0001b0 80 6d 4a 3f a2 89 66 3f 7e 88 6c 3f 6d a4 75 3f
       0.79073334 0.9005376 0.9239577 0.9595402
0001c0 dd bc 5d 3f d9 86 88 3f 37 9d 80 3f 4c e0 78 3f
       0.8661631 1.0666152 1.0047978 0.9721725
0001d0 bb 48 66 3f 82 d9 71 3f 0b df 80 3f 58 f2 5c 3f
       0.8995473 0.94472516 1.0068067 0.8630729
0001e0 a0 6a 6d 3f 13 09 7e 3f 74 6a 80 3f 53 4e 5c 3f
       0.9274082 0.99232596 1.0032487 0.86057013
0001f0 09 f3 52 3f 26 2a 77 3f 12 8d 55 3f 0f 80 4a 3f
       0.8240209 0.9654869 0.8341838 0.7910165

bn1.bias f4 [128]
000000 94 69 0c be 18 7a 8f be 6d e0 d2 be 7f 31 08 bf
       -0.1371215 -0.28022838 -0.41186848 -0.53200525
000010 59 a1 7f be ad 86 71 be fd 97 f3 be 24 bf 70 be
       -0.24963893 -0.23586531 -0.47576895 -0.23510414
000020 0e 62 8b be 93 df 5d be 26 05 b6 be 51 cf 91 be
       -0.27223247 -0.21667318 -0.35550803 -0.28478482
000030 75 ff b2 be 30 4e c1 be 1c e7 9c be e9 98 b3 bd
       -0.34960523 -0.37754965 -0.30645072 -0.087694
000040 d4 8d 8e be 4a ab 7c be 88 72 a8 be 3c 24 20 bf
       -0.2784258 -0.24674717 -0.3289988 -0.6255529
000050 e7 b2 b7 be dc d7 55 be 7b 68 1a bf 74 6a af be
       -0.3587868 -0.20883125 -0.60315675 -0.34260905
000060 6b f6 cb be 85 32 6b be 36 42 ab bd 23 d5 d9 be
       -0.3983644 -0.2296849 -0.08362238 -0.42545423
000070 17 63 7f be e9 43 e3 be 8d ad 96 be 00 77 00 bf
       -0.24940144 -0.4438775 -0.29429284 -0.5018158
000080 09 ed 30 bf 66 33 1d bf 2f 2e a1 be 59 3b 48 bf
       -0.69111687 -0.6140655 -0.31480548 -0.7821556
000090 13 30 33 be 52 7f 9e be f3 a1 c8 be 6d 59 27 bf
       -0.17498808 -0.30956513 -0.39186057 -0.6537083
0000a0 a1 b4 c3 be 0c 15 e2 be 32 82 c2 be 6a 17 3b be
       -0.38223746 -0.44156682 -0.37989956 -0.1827065
0000b0 ed 0c cb be e1 f0 a7 be 99 28 01 be 92 51 db be
       -0.396583 -0.32800964 -0.12613143 -0.4283567
0000c0 7f 0f c0 be 3a 46 ad be aa 2a 9e be 82 c2 0b bf
       -0.37511823 -0.3384264 -0.30891925 -0.5459367
0000d0 38 30 07 be e2 e1 78 be 4d 36 b3 be 7b 98 08 bf
       -0.13201988 -0.24304917 -0.35002366 -0.53357667
0000e0 2c 1b 90 be 86 e3 af bd c6 ca dd be fb f2 58 be
       -0.2814573 -0.085883185 -0.43318766 -0.2118644
0000f0 8e cc 9b be 7d ac e2 bd ab 3d 20 be fd 3a 01 bf
       -0.304295 -0.11068056 -0.15648524 -0.50480634
000100 e8 50 67 be 77 a1 87 be 1a 6a 29 be 40 6f 82 be
       -0.22589457 -0.26490375 -0.16544381 -0.25475502
000110 2b cc b3 be 8c 3d d7 be 3c 80 88 be 7e e3 62 be
       -0.35116705 -0.42039144 -0.26660335 -0.22157094
000120 84 15 10 bf 02 71 a9 be 43 14 1a bf 46 65 dc be
       -0.5628283 -0.3309403 -0.60187167 -0.43046016
000130 4d ed f0 be c8 8b 90 be 8b 5e 39 be 52 2e ce be
       -0.47056046 -0.28231645 -0.18102472 -0.40269715
000140 4c fa e8 be 42 43 65 be 4e 17 dc be 6f 11 ac be
       -0.4550346 -0.22388938 -0.4298653 -0.3360705
000150 41 7c 9e be 33 be 93 be 23 35 b8 be ff 60 7b be
       -0.30954173 -0.28856048 -0.3597804 -0.2454872
000160 e0 ba a1 be f3 21 b2 be 71 34 7b be 71 73 a6 be
       -0.31587887 -0.34791526 -0.24531724 -0.3250995
000170 df 83 ae be 60 d1 10 bf 7c 8b a6 be 38 7f ac be
       -0.34084985 -0.5656948 -0.32528293 -0.3369081
000180 69 d8 10 bf b5 b5 84 be 16 ec 88 be a4 1e 9c be
       -0.56580216 -0.2591988 -0.2674262 -0.30492127
000190 9c ff 9e be 71 d2 b0 be 01 76 0c bf 34 23 bc be
       -0.3105439 -0.34535554 -0.5486756 -0.36745608
0001a0 bd 2d 62 be ad 9d 29 be 7e eb 87 be a2 88 50 be
       -0.2208776 -0.16564055 -0.26546854 -0.20364621
0001b0 39 f8 9f be f8 5f d8 be b5 78 9f be 90 f4 e3 be
       -0.31244066 -0.42260718 -0.3114678 -0.44522524
0001c0 9b cd a3 be e4 cf 7c be 67 d7 08 bf 7c 34 db be
       -0.31992802 -0.24688679 -0.5345368 -0.4281348
0001d0 b1 ae 80 be dc 3b 9d be cd 6d 08 bf 2b 85 9a be
       -0.2513328 -0.30709732 -0.5329254 -0.30179724
0001e0 f1 ec bc be b2 ee 97 be b5 6f 1c be c9 cf ab be
       -0.36899522 -0.29674298 -0.15276988 -0.33556965
0001f0 d5 d7 d2 be 7e 6f 11 bf cf 97 2e be ba 22 d4 be
       -0.41180292 -0.5681075 -0.17050098 -0.41432744

bn1.running_mean f4 [128]
000000 95 c6 2a bd b7 4c 67 bc aa b6 5e 3d d1 be 71 3d
       -0.04169329 -0.014117411 0.05437342 0.059019867
000010 7d ed 37 3d e3 df 8b 3d e2 91 ce 3d e0 30 64 bd
       0.04490422 0.068298124 0.10086419 -0.055710673
000020 9b 6a 36 3c 54 33 17 3b aa 6b 8a 3d b8 f2 d4 ba
       0.011133815 0.0023071365 0.067588165 -0.0016246652
000030 00 0c 61 3d 44 dd c5 bc 1b 8e 6e bc 83 2d 38 3c
       0.054943085 -0.02415336 -0.014560248 0.01124132
000040 e8 b0 85 3d 92 61 1f 3d 30 a0 8d 3d 83 21 2e 3d
       0.06527883 0.03891141 0.06915319 0.042512428
000050 71 64 74 3d 78 d9 ec 3c 79 ec 71 3d 81 fe 6d 3d
       0.0596661 0.02891229 0.05906341 0.058104042
000060 6c 7a 3d 3c f2 21 89 3d de 8c a0 bc f4 fc b6 bd
       0.011564832 0.06695928 -0.01959842 -0.08934966
000070 c8 e3 37 bd 6a 36 4d bd 4f 3e b2 bd 80 22 7d bd
       -0.044894964 -0.05010072 -0.08703291 -0.06180048
000080 7a b6 e9 bc 67 50 c1 bc 11 fb 9a bd 6c 1b 21 bc
       -0.028529394 -0.02359791 -0.07567418 -0.009833198
000090 54 40 18 3b f2 5e 7f 3c 21 b7 78 3c db c5 66 bc
       0.0023231702 0.015586602 0.01518038 -0.014085258
0000a0 58 bf 58 bd 94 3f 20 bd db cc 78 bd aa 84 85 3d
       -0.052916855 -0.039123133 -0.06074224 0.06519444
0000b0 3c e5 0e be 52 65 11 3d 61 6f d3 3d 9c cc 11 bd
       -0.13954633 0.035497017 0.10323978 -0.03559552
0000c0 64 f3 9a 3b 5b 4f 05 bd 5e 59 3a bd dd cb 09 bd
       0.0047287215 -0.032546382 -0.045495383 -0.033641685
0000d0 8b 51 c2 3d d8 eb 4b 3c 77 0d 5a 3d e2 bd 0f 3d
       0.09488209 0.012446366 0.053235497 0.035093196
0000e0 24 1b 96 bd 92 81 2f bd 4c 70 46 bc 24 16 bb bc
       -0.073293954 -0.042848177 -0.012111735 -0.022837706
0000f0 ed 48 3c bd 6f 1e 8c 3c 4c 53 94 bc dd 31 1f bd
       -0.045967985 0.017104356 -0.018106125 -0.038865913
000100 4e 4a 91 3c 16 e9 65 3d 60 43 05 be fa 14 a0 bd
       0.017735627 0.05613049 -0.13013983 -0.07816501
000110 43 ee 78 bd 13 6c 32 3d 26 61 81 bb fc 1b ec 3c
       -0.0607741 0.0435601 -0.0039483486 0.028821938
000120 b9 de 11 3d 55 eb 93 bd 48 41 ae bd e6 48 78 3c
       0.035612796 -0.072226204 -0.08508545 0.015154099
000130 1d c1 83 3d 94 cc 3e 3b 9a 76 8c 3d 90 cb b0 ba
       0.06433318 0.0029113637 0.06858559 -0.0013488401
000140 ba 2f 3b bd ae 43 ab 3d 03 2b cb bc 5f 2c cd 3c
       -0.045699812 0.08362518 -0.024800783 0.025045572
000150 e4 a1 22 bd 0e e6 9c bd b4 20 28 bd ce a7 d3 3d
       -0.039705172 -0.07661067 -0.041046813 0.103347406
000160 81 6c 3f bc a4 d7 70 bc 93 3c 55 3d a2 1a 4a 3d
       -0.011683584 -0.01469985 0.05205972 0.049341805
000170 5c 81 4c 3d b6 86 85 bd 63 c0 92 3c 99 4c 01 3d
       0.049928054 -0.06519835 0.017914003 0.03156719
000180 ff 3f 81 3c 4e 64 2d bd 18 c4 c8 bc fe c9 8c 3d
       0.015777586 -0.042331986 -0.024507567 0.068744645
000190 4e 1a 01 be fe 6c 9b bd 88 e9 91 3d 4f 34 c6 3d
       -0.1260769 -0.07589148 0.07124621 0.09677946
0001a0 2c c8 38 bd 40 d9 ed 3c d0 35 84 3a cf dc 8a bd
       -0.045112774 0.029034257 0.0010086838 -0.06780397
0001b0 cb 12 99 3c 28 2a bf bd ce 0e e5 bd f4 2a 4b 3c
       0.018685719 -0.093342125 -0.111844644 0.012400378
0001c0 fe fa b3 3c b9 06 d9 3b 5c 7d c5 bc 8a f4 0c 3b
       0.021970268 0.006623116 -0.024107628 0.0021508061
0001d0 44 1d 91 bd 1e ca 4b 3c 6f e1 c2 3c aa b3 80 bb
       -0.0708566 0.012438325 0.023789136 -0.0039276676
0001e0 08 f1 3e bd 88 7c 73 3d 95 0d bd 3c 8d dd 4c 3d
       -0.046616584 0.059444934 0.023077765 0.050015975
0001f0 f6 fa ab 3b 4c bd a1 bd 9f 26 1d bd e0 24 e3 3c
       0.0052484227 -0.07897434 -0.03836691 0.027727544

bn1.running_var f4 [128]
000000 97 a6 61 40 b2 93 24 40 d0 7d 25 40 bd e7 3c 40
       3.5257928 2.5715146 2.585804 2.9516442
000010 cb 45 2f 40 2d 6f 7b 40 f9 e2 f4 3f 4d 46 72 40
       2.7386348 3.9286606 1.9131767 3.7855408
000020 2b b6 3e 40 8b 2e 13 40 b7 0d 30 40 69 20 28 40
       2.9798687 2.2997158 2.750837 2.6269782
000030 a8 79 13 40 90 27 25 40 cd 44 4a 40 7c c6 2b 40
       2.3043003 2.5805397 3.1604493 2.6839895
000040 2f b2 5b 40 3c b3 38 40 3d 22 23 40 60 aa 45 40
       3.4327505 2.8859396 2.5489647 3.0885239
000050 af 55 2d 40 c0 bc 2f 40 7a 9c 3b 40 0e 93 4e 40
       2.7083547 2.7458954 2.9314256 3.2277255
000060 85 3f 1b 40 7b 01 4b 40 22 af 92 40 33 7c 0d 40
       2.425752 3.1719654 4.5838785 2.2107055
000070 8e ae 51 40 f2 4c 18 40 a4 c9 f6 3f 2a 7c 01 40
       3.276279 2.3796964 1.9280286 2.0232034
000080 a7 8c 07 40 a7 3f 0c 40 30 72 4c 40 bb 92 0d 40
       2.1179597 2.191385 3.1944695 2.2120807
000090 69 bc 07 40 6a 72 3b 40 4e 49 6a 40 e2 0f 25 40
       2.1208746 2.9288583 3.6607242 2.5790944
0000a0 89 e1 1d 40 90 a2 ec 3f 5f 3d 1b 40 ca 5d 13 40
       2.4668906 1.848711 2.4256208 2.3025994
0000b0 33 a6 62 40 13 86 81 40 c2 fd 3a 40 0a b5 14 40
       3.541394 4.0476165 2.9217381 2.3235497
0000c0 ed 50 21 40 57 33 34 40 6d c4 33 40 30 5f 5a 40
       2.5205643 2.8156335 2.8088639 3.4120598
0000d0 b7 9c 67 40 ba d7 28 40 42 ec 1b 40 c9 f0 32 40
       3.61894 2.638167 2.436295 2.7959464
0000e0 81 64 78 40 07 a0 6d 40 89 89 22 40 75 15 42 40
       3.8811343 3.7128923 2.5396445 3.0325596
0000f0 47 14 11 40 cf b6 3b 40 72 d0 31 40 29 7e 41 40
       2.2668626 2.9330328 2.7783475 3.0233252
000100 f3 70 50 40 82 5f 4a 40 2f f3 56 40 7e 4f 66 40
       3.2568939 3.1620793 3.3585927 3.5986018
000110 d4 96 e3 3f 1a c2 15 40 15 db 08 40 04 a6 3d 40
       1.7780404 2.339972 2.1383717 2.9632578
000120 7e 16 25 40 44 31 0b 40 75 e3 23 40 83 38 77 40
       2.5794978 2.174882 2.5607579 3.8628242
000130 bb 08 ff 3f 86 9b 36 40 ea b9 70 40 60 e7 34 40
       1.9924539 2.8532424 3.7613473 2.826622
000140 b7 a7 1e 40 ab 3f 65 40 30 a8 38 40 cb 99 1e 40
       2.4789865 3.582011 2.8852654 2.4781368
000150 87 a2 58 40 6c c8 1c 40 1c af 21 40 76 23 36 40
       3.38492 2.4497328 2.5263128 2.8459144
000160 25 c0 3c 40 4f 03 40 40 5f 5a 20 40 f5 84 ea 3f
       2.9492276 3.000202 2.5055158 1.8321825
000170 4f b1 0b 40 07 8b 3f 40 7d c7 2e 40 db b1 99 40
       2.182697 2.9928606 2.7309258 4.802961
000180 81 5f 64 40 73 85 6c 40 57 c8 52 40 dc 6e 67 40
       3.568329 3.695645 3.2934778 3.6161413
000190 67 5f 3c 40 41 f6 15 40 1f 99 6b 40 fb 53 5d 40
       2.943323 2.3431551 3.6812208 3.4582508
0001a0 b5 af 32 40 50 f1 58 40 b3 68 30 40 35 c8 2d 40
       2.7919743 3.3897285 2.7563903 2.7153447
0001b0 1c 72 28 40 d6 25 36 40 cf ad 30 40 8b e7 45 40
       2.6319647 2.8460593 2.7606084 3.0922573
0001c0 e7 7d 0b 40 0e 0c 3b 40 d4 86 42 40 ec 4c 1a 40
       2.1795595 2.9226108 3.0394793 2.410945
0001d0 52 8e 20 40 5b 66 47 40 27 e6 79 40 59 03 52 40
       2.5086865 3.1156223 3.9046724 3.2814543
0001e0 d4 5f 1f 40 83 6a 65 40 d0 f5 5f 40 4a 6b 25 40
       2.490224 3.584626 3.4993782 2.5846734
0001f0 69 c3 3f 40 0d 4b 0d 40 bc e4 2e 40 e7 e1 33 40
       2.996302 2.2077057 2.7327108 2.810663

fc2.weight f4 [64, 128]
000000 34 15 9f bd 18 d0 81 be ca 18 8e be 03 03 80 3e
       -0.07767716 -0.25354075 -0.27753288 0.25002298
000010 4b a5 8f 3d ad 73 b1 be d4 e0 b2 3c 9a e1 9d 3d
       0.07013949 -0.34658566 0.021835722 0.07709046
000020 44 1a 83 3d 1a 5f 1d 3b da bb 35 bd ae e3 af bc
       0.06401494 0.0024012984 -0.044368602 -0.02147087
000030 30 13 35 be 1f 8d 9c bd 56 c8 81 3d 7d 19 58 3d
       -0.176831 -0.07644104 0.06337039 0.052758683
000040 49 90 fb 3d 01 dc 5e 3e 35 28 5e be 94 9e 6f 3e
       0.122833796 0.21763612 -0.21695025 0.23400337
000050 14 86 94 bd 7c 23 91 3d 24 42 17 3e 25 ac 8e be
       -0.07252136 0.07086846 0.14771324 -0.2786571
000060 f5 69 88 be 74 fb 9b bd fc 6f 83 bd da c4 03 be
       -0.2664334 -0.0761632 -0.06417844 -0.12868062
000070 34 ca 21 be 85 bb 29 be 07 8b 03 3e 42 0b bb bd
       -0.1579979 -0.1657544 0.12846003 -0.09133007
000080 47 26 06 3e 68 ed 36 bc 09 11 78 bb 46 93 54 3d
       0.13100539 -0.0111650005 -0.003785195 0.051898263
000090 a9 3e b2 bd 09 8b 49 be d5 7c 27 bd 4e 81 8a 3e
       -0.08703358 -0.19681944 -0.040890533 0.27051777
0000a0 2d 11 0c 3d 1e bf d0 3d 32 fc 30 3e fa 57 2e be
       0.034196068 0.10192703 0.17283705 -0.17025748
0000b0 17 b2 c1 3d a5 20 15 3d 97 f7 9e bb 2c 1f 28 be
       0.09457796 0.036408085 -0.0048512924 -0.16418141
0000c0 33 c1 40 3d 87 db 99 bc 82 12 a0 bc 76 a0 22 3c
       0.04705925 -0.018781437 -0.019540075 0.009925952
0000d0 c5 58 0b bd 0e 2f fb bd 96 d0 c5 3b 23 98 82 bd
       -0.034020204 -0.12264834 0.0060368283 -0.06376674
0000e0 6a 49 0b be ff 8d 26 be 7b 1b 3d 3e 00 bc 82 bd
       -0.13602224 -0.16265105 0.18467514 -0.063835144
0000f0 36 57 d3 3d 40 b7 62 3c 94 ba b2 bd 52 f7 0d 3e
       0.103193685 0.0138376355 -0.08726993 0.13863876
000100 52 c8 51 3e a5 bf b0 3b 75 c4 4f bc 54 fc 00 be
       0.20486572 0.0053939396 -0.012681116 -0.12596256
000110 b4 5d 59 bd 63 3c 1c 3e 53 7a d9 bc 3a 6c 3b 3e
       -0.053067878 0.1525741 -0.026547587 0.18303004
000120 21 41 04 3e c1 01 bc 3d a8 21 3b 3b 4a bd 0d 3d
       0.1291547 0.09180022 0.0028553996 0.03460435
000130 37 10 9c 3b 27 46 19 be 03 e0 a0 be 49 47 f9 bc
       0.004762675 -0.14968167 -0.31420907 -0.0304295
000140 4b 54 59 3d 39 3e 52 be 25 b3 e0 bc e5 55 0f 3e
       0.053058904 -0.20531549 -0.027429173 0.1399761
000150 d5 b2 f6 bc c4 16 f2 3d 54 bc 03 bd f1 b4 e7 bd
       -0.03011457 0.118207484 -0.032162026 -0.11313809
000160 12 d1 9f bc 0f b2 4e 3d 06 ed 1e be 37 2a aa 3c
       -0.019508872 0.05046278 -0.15520105 0.020772083
000170 1c 8d b1 3d 27 39 42 3e d7 2c 16 be af 62 99 3d
       0.086694926 0.18967114 -0.14665543 0.074895255
000180 6d 1c e2 3d e6 74 ec bd 84 38 dd bd 6c 90 f3 3d
       0.11040578 -0.11545734 -0.10801795 0.11892781
000190 63 44 68 3d c3 44 51 3d 7a 8d 18 3e a8 63 cb be
       0.056705844 0.051090967 0.14897719 -0.3972447
0001a0 7a f6 b2 be 50 64 07 bd b4 9c 0f be 29 09 f8 3b
       -0.34953672 -0.03305465 -0.14024621 0.0075694514
0001b0 30 58 08 be e0 14 60 3e 52 55 b3 3c b4 99 d8 3d
       -0.13314891 0.21882963 0.02189127 0.105761915
0001c0 da 46 1e bd e5 36 64 be 1f 3e cb 3d 71 58 97 be
       -0.038641788 -0.22286566 0.09923958 -0.29559663
0001d0 c4 79 91 3c 8d e6 f0 bd 4d 2f 30 3e b9 ab 05 be
       0.017758258 -0.11762724 0.17205544 -0.13053788
0001e0 c4 19 88 3d 32 1a 1d 3e b4 4d da 3d 14 2b 8c bc
       0.066455394 0.15342024 0.10659352 -0.017110385
0001f0 8f 4e 97 3c 07 da a1 3d bc f1 20 be 23 e3 16 be
       0.018470077 0.079029135 -0.15717214 -0.14735083
000200 70 a2 83 be a4 61 12 bd 0d 3e ee 3d d0 9d 3c 3c
       -0.25709867 -0.03573765 0.11632929 0.011512235
000210 75 f5 aa 3d de 7c 53 be 93 d6 01 3d f8 46 95 3d
       0.083475985 -0.20653102 0.031698775 0.07288927
000220 ee 37 23 3d 8d 97 8f 3c 70 0a ef bc 0e 41 ad bd
       0.03984826 0.01752832 -0.029179782 -0.08459674
000230 5c 74 70 be 77 c3 cd bc c0 4d d6 3c 53 68 34 bb
       -0.23481888 -0.025117619 0.026160121 -0.0027528002
000240 7f cf da bb 43 d1 65 3d 28 7a ed bd f8 79 f7 3d
       -0.0066775675 0.05610777 -0.11595565 0.120838106
000250 8f 90 8d bd 21 16 cb be 3a 15 6a 3e d2 2e 05 bd
       -0.06912338 -0.3966532 0.2285966 -0.032515354
000260 09 f1 fd bd c8 ad bc bd d6 76 b6 be f1 88 b2 be
       -0.123994894 -0.09212834 -0.3563754 -0.34870103
000270 f4 0b a2 be d4 82 4f bd 41 40 cc 3d e6 3b 1d 3b
       -0.31649745 -0.050661877 0.09973193 0.0023992
000280 ac 5a aa 3e 5c 19 1a be 2e b1 3e 3e 01 4a 40 3c
       0.33272302 -0.15048736 0.18622276 0.011736394
000290 e9 3c 41 be 1a 26 46 be d0 12 35 3d 05 55 ed 3c
       -0.18870892 -0.19350472 0.044207394 0.028971205
0002a0 30 c3 24 be 46 4c 3f 3d 7c e8 9c bc 5d 41 a1 be
       -0.16090083 0.0467036 -0.019153826 -0.3149518
0002b0 72 ae 1a 3e 8c 8e 8c bd 67 61 71 bb 7f 9f d4 3d
       0.15105608 -0.06863126 -0.0036831738 0.10381984
0002c0 4a d3 08 3d af fb 84 3d a5 bc f4 bd bf 1f b1 3d
       0.033404626 0.06493317 -0.119500436 0.08648633
0002d0 99 60 86 3d d5 27 b2 bd 85 6c ed bd 25 9d 00 3e
       0.06561393 -0.086990036 -0.11592964 0.12559946
0002e0 3b 71 8e be b1 9b 1d bd 53 4e a6 bc 51 7a 17 bd
       -0.27820763 -0.038478557 -0.02030102 -0.036981884
0002f0 f5 09 38 3e 12 29 3c bc 80 75 82 be 11 fc 33 3d
       0.17972548 -0.011484401 -0.2548027 0.04394156
000300 a0 94 d5 3d ca 76 83 3d a1 ee 4c be c9 12 22 3d
       0.104287386 0.064191416 -0.20012905 0.039568696
000310 9a a7 00 3e c2 b6 2c 3e e6 4c 31 3d 2e 25 ab 3d
       0.12563935 0.16866592 0.043286227 0.08356701
000320 53 ba 87 3d a7 0d cb 3c 61 8c 01 3e d5 91 7f bb
       0.066273354 0.024786783 0.12651207 -0.0038996835
000330 f1 94 ee 3d 70 b0 11 bd 89 18 17 bd 70 b7 c4 3d
       0.11649502 -0.035568655 -0.036888633 0.096053004
000340 6a e2 b8 3d 45 8e f9 bd 45 02 14 3e a6 65 87 be
       0.0902756 -0.12185339 0.14453991 -0.2644474
000350 db fd 4d be 14 ff 2f 3c e9 a7 69 be 73 a2 ec bd
       -0.2011637 0.010741968 -0.22817959 -0.11554422
000360 b9 2f dd bc 7f 13 f8 bc d8 d9 14 be 47 9e cc bd
       -0.027000295 -0.030282734 -0.14536226 -0.099911265
000370 6f 40 c3 3c 9a a8 ac 3d e7 37 89 3d d3 0f 33 bd
       0.023834435 0.08430596 0.06700116 -0.043716263
000380 42 d8 af 3d f4 35 48 be 7d 7a 1b be a7 e2 a9 3d
       0.0858617 -0.19551831 -0.15183444 0.08295184
000390 75 90 bf 3d 91 07 a9 bd a9 20 2c 3e 6c b2 b0 bd
       0.09353725 -0.08253396 0.16809334 -0.08627781
0003a0 c8 a1 34 be 67 be f1 bd bf 31 c8 bb c5 f5 9c 3d
       -0.1763984 -0.118038945 -0.006109446 0.07664064
0003b0 49 b9 98 bb d6 5b 89 3e 81 c6 6c 3d 0d 7b f2 3d
       -0.0046607596 0.26827878 0.057806496 0.11839876
0003c0 25 99 5a 3e 4e 48 ad be 6d 6c ad bb 6e 91 2b bd
       0.21347483 -0.33844227 -0.0052924664 -0.04188674
0003d0 3b 6f 43 be 88 99 80 be 3f 89 24 3e 90 ab ab bd
       -0.190854 -0.25117135 0.1606798 -0.08382332
0003e0 7d ca a9 bd c5 62 d0 3c f3 3c 03 3d 74 68 2f 3d
       -0.08290575 0.025437722 0.032040548 0.042824224
0003f0 b6 35 3f bd ee d5 e2 bc 35 9c 88 bd 15 bb a2 bd
       -0.046682082 -0.0276899 -0.06670419 -0.07945839

fc2.bias f4 [64]
000000 cb b0 87 bc f4 b7 d2 bc 6b 00 98 3d 48 f1 9c 3d
       -0.016563794 -0.025722481 0.07421955 0.07663208
000010 f4 c4 36 bd 34 d8 a1 bd a9 94 95 3d 0a 4b 16 3c
       -0.044621423 -0.079025656 0.07303745 0.009173164
000020 c5 49 a4 3d 41 f5 43 bd 8b 69 80 3d 5b d9 e2 bb
       0.08021883 -0.047841314 0.06270131 -0.0069228834
000030 a3 5c 5f bd 3a fa d4 bc 18 58 a8 3d 0f 2b b8 bd
       -0.054531705 -0.025998224 0.082199275 -0.08992588
000040 65 6b 1c 3d ef 99 22 bc 97 f9 df 3c 84 58 be 3c
       0.038188357 -0.009924396 0.027340693 0.023235567
000050 87 d0 7a bd 72 b5 63 3d 96 8b 47 bd 2c 24 91 3b
       -0.061234023 0.05559296 -0.048717104 0.004429361
000060 3c d7 26 bd 23 08 1a 3d 1c e4 d7 bb fd c1 90 bd
       -0.040732607 0.037605416 -0.006588472 -0.0706825
000070 bf 27 12 3c 92 c1 95 3b f5 db 69 3c 34 66 32 3d
       0.008920609 0.0045701945 0.014273633 0.0435545
000080 23 a2 41 bb 18 2d 47 bc 65 4e 61 bd 39 bb 61 3d
       -0.0029546104 -0.012156747 -0.055006403 0.05511019
000090 6e 66 68 bc e2 6e ff 3c 0e 19 16 3d 8d 7a ab 3d
       -0.014184577 0.031180803 0.036644988 0.08372984
0000a0 b0 2d c8 3c cf 74 4b 3d 32 63 11 3d b5 a1 89 bc
       0.024435848 0.049671944 0.03549499 -0.01680074
0000b0 23 cb 4a bc 07 0d ae 3d 14 e8 a5 3d 96 5b 0f 3d
       -0.012377533 0.084985785 0.08100906 0.034999453
0000c0 bf 35 a2 bc 6a 6d 43 3c b7 5b 58 bd 50 28 5b bd
       -0.019801019 0.011927942 -0.05282184 -0.053505242
0000d0 37 7b 06 bb 8e 18 a5 bd 4e d0 89 3d 2f 7f 82 3d
       -0.002052022 -0.08061324 0.06729184 0.063719146
0000e0 b1 0c 51 3d a2 f0 4d bd 87 98 bd 3c dd 56 15 3d
       0.051037494 -0.050278313 0.02314402 0.036459792
0000f0 29 9e 5e 3d 9c 65 0f 3d 14 4a 8d 3d 82 39 3c 3d
       0.054350052 0.03500901 0.06898895 0.04595328

bn2.weight f4 [64]
000000 59 ad 67 3f 77 e6 60 3f ea b1 56 3f e5 df 6a 3f
       0.9049888 0.8785166 0.83865225 0.91747886
000010 80 89 72 3f 88 c4 6e 3f 49 3a 5c 3f f9 29 66 3f
       0.9474106 0.9326863 0.86026436 0.89907795
000020 73 a9 66 3f 04 34 63 3f 09 28 67 3f 6d c9 6c 3f
       0.9010231 0.88751245 0.90295464 0.9249485
000030 67 16 61 3f d5 98 62 3f 2e c6 68 3f 4e 1b 64 3f
       0.8792481 0.88514453 0.909274 0.89104164
000040 81 a9 73 3f 78 ad 6d 3f bc bc 6d 3f 5b 77 6f 3f
       0.9518052 0.9284282 0.9286611 0.93541497
000050 63 20 66 3f e1 33 5f 3f f6 99 68 3f d4 5a 6e 3f
       0.8989317 0.87188536 0.90859926 0.9310734
000060 5c d8 71 3f 0e 58 5c 3f 28 e5 69 3f a2 60 53 3f
       0.94470763 0.8607186 0.9136529 0.82569325
000070 04 31 69 3f a8 a2 65 3f a5 e8 5a 3f a4 a7 62 3f
       0.91090417 0.8970132 0.8551124 0.8853705
000080 ae 20 52 3f 0a 2b 70 3f ac 22 65 3f b6 96 60 3f
       0.82081115 0.9381567 0.8950603 0.87729967
000090 56 3a 46 3f 3f 78 67 3f 30 11 58 3f 8e aa 62 3f
       0.77432764 0.90417856 0.84401226 0.88541496
0000a0 5c 12 61 3f 45 1a 49 3f 85 94 6b 3f 81 5c 5f 3f
       0.8791864 0.7855571 0.920235 0.87250525
0000b0 7b b2 61 3f 93 d7 63 3f fd 8e 64 3f d8 75 5a 3f
       0.88162965 0.89000815 0.8928068 0.85336065
0000c0 c9 c4 72 3f e4 53 59 3f cc cb 5d 3f 29 b1 69 3f
       0.9483152 0.8489363 0.86639094 0.9128595
0000d0 8f 9c 6c 3f 4f ef 51 3f cd 79 6a 3f b7 03 44 3f
       0.9242639 0.8200578 0.91592103 0.7656817
0000e0 25 97 67 3f 22 51 56 3f 84 b1 5c 3f 6b f8 61 3f
       0.90465003 0.8371755 0.8620837 0.8826968
0000f0 25 bf 4e 3f ec b8 69 3f ca 72 61 3f dc 0c 58 3f
       0.80760413 0.91297793 0.8806578 0.8439462

bn2.bias f4 [64]
000000 cc 4b 0c bd e5 05 b8 bd 60 7a b7 be cf 78 57 be
       -0.034251973 -0.08985499 -0.35835552 -0.21042179
000010 a4 47 d4 bd c7 1d ab bd 07 bd 8c be e1 37 bb be
       -0.10365227 -0.08355289 -0.27487966 -0.3656607
000020 1e de 4f bc 4a 92 c6 be cd f3 ec bc bc f5 05 be
       -0.012687234 -0.38783485 -0.028924847 -0.13082021
000030 1a b5 5d be 10 fe ab be 63 a7 92 bd 1a 99 dc be
       -0.21651116 -0.33592272 -0.07160833 -0.43085557
000040 55 da 16 be 9f 6e 8e bc 11 96 51 bd 7d 83 de 3a
       -0.14731725 -0.017386733 -0.051168505 0.0016976442
000050 b2 e5 63 be e4 a0 73 be d5 12 a6 bc 7d 08 1d bd
       -0.2225559 -0.23791844 -0.020272652 -0.038338173
000060 d0 c8 6d bd a1 2d c0 3d c6 24 bd bd 0f 34 d4 be
       -0.058052838 0.09383703 -0.092355296 -0.41445968
000070 8e bf d6 bd fb 41 6f be 21 ce b9 be 8a 63 3f be
       -0.10485755 -0.23365013 -0.36290076 -0.18690315
000080 a7 58 f2 be c4 5d a2 bd 90 b5 94 bd cc ce 93 bc
       -0.4733326 -0.079280406 -0.07261193 -0.018042944
000090 cf f6 de 3a 36 98 0c be b4 f5 e1 bb 05 c8 59 be
       0.001701081 -0.13729939 -0.006895745 -0.21267708
0000a0 9d 84 40 bd 7a 9c df bb 39 e1 5e be 15 c4 c3 be
       -0.04700147 -0.0068240734 -0.21765603 -0.38235536
0000b0 1c 99 5f bb fd 61 c0 be 28 0d 77 bd cd 2f 08 bf
       -0.003411836 -0.3757476 -0.06031528 -0.5319794
0000c0 9c 1a 90 bd 39 dd a7 be a8 3f d6 be bc c8 e1 bd
       -0.07036325 -0.32785967 -0.4184544 -0.11024615
0000d0 22 41 f9 bd 1a 74 92 bc 50 2d c7 bc 76 75 59 3c
       -0.12170626 -0.017877627 -0.024313599 0.013272634
0000e0 fd 94 1b be a5 23 05 bd 75 15 72 3d 38 62 7b 3c
       -0.15193553 -0.032504696 0.059102494 0.015343241
0000f0 5b a1 92 3d 1e 8b bf bd 1e 9a b0 bd 8c 76 ba be
       0.07159682 -0.093527064 -0.086231455 -0.3641857

bn2.running_mean f4 [64]
000000 22 d8 1d bf 31 d9 8a bf b2 51 f5 bf 31 48 02 c0
       -0.6165792 -1.0847532 -1.9165556 -2.0356562
000010 20 7b c1 bf 9b 93 b3 bf 53 9c 05 c0 3c d2 17 c0
       -1.51157 -1.4029421 -2.0876663 -2.3722067
000020 dc 41 18 bf 66 15 fc bf 3e 75 3d bf 6b e1 e5 bf
       -0.59475493 -1.969403 -0.7400702 -1.7959417
000030 61 71 e4 bf 2a 60 23 c0 06 85 86 bf d7 67 15 c0
       -1.78471 -2.5527444 -1.0509346 -2.334463
000040 87 ce 01 c0 cf 7e 25 be 6e b4 45 be e4 d1 c4 bf
       -2.0282304 -0.16161655 -0.1930711 -1.5376554
000050 fc b1 e4 bf 82 1f e4 be 85 af e1 bf f9 88 87 bf
       -1.7866817 -0.4455529 -1.7631689 -1.0588676
000060 cf 07 80 bf ab 99 42 bf b1 b7 72 bf 99 4f 0d c0
       -1.0002383 -0.7601573 -0.9481154 -2.2079833
000070 0e 02 bf bf 0f fb 20 c0 2c 61 19 c0 ef 58 ff bf
       -1.4922502 -2.5153234 -2.396556 -1.9949015
000080 0d f8 20 c0 db ae 97 bf 81 be 8a bf e0 01 50 bf
       -2.5151398 -1.1850237 -1.0839387 -0.8125286
000090 1b 0a ef bf 72 bb 12 c0 24 fb c7 bf f1 00 9e bf
       -1.8674959 -2.2926908 -1.5623517 -1.2344037
0000a0 e0 c6 82 bf 9f 28 c1 bf c0 64 08 c0 aa 9c d5 bf
       -1.0216942 -1.5090522 -2.1311493 -1.6688435
0000b0 30 3c 9a bf 75 5d 9b bf cc c6 e6 bf d6 b5 24 c0
       -1.2049618 -1.2137896 -1.8029418 -2.5735984
0000c0 bc ef e9 bf f3 f3 dd bf b0 73 15 c0 f2 47 ab bf
       -1.8276286 -1.7340072 -2.335186 -1.3381331
0000d0 50 dd ef bf 2a a5 80 be 68 ad 05 bf e3 db 82 3e
       -1.8739414 -0.2512601 -0.5221772 0.25558385
0000e0 94 81 03 c0 32 92 cb bf c3 32 27 bf 07 e4 49 bf
       -2.0547838 -1.590399 -0.6531183 -0.7886357
0000f0 74 71 04 bf 7b ad a1 bf 58 b8 8d be 04 81 11 c0
       -0.51735616 -1.2631067 -0.27679706 -2.2734995

bn2.running_var f4 [64]
000000 77 27 99 40 83 a4 b3 40 6e c0 82 40 9a 42 ae 40
       4.7860675 5.613832 4.08599 5.44563
000010 a6 17 c0 40 3f c2 a4 40 42 81 bb 40 8d e9 ba 40
       6.002887 5.1487117 5.8595285 5.8410096
000020 0b 18 ae 40 45 bb 69 40 ba d6 99 40 24 28 b1 40
       5.440435 3.652055 4.8074617 5.53615
000030 70 d5 bb 40 a2 e2 8e 40 63 53 c0 40 25 8b a6 40
       5.8698044 4.465165 6.010179 5.2044854
000040 97 66 b2 40 86 b0 ad 40 31 1f 81 40 63 da d1 40
       5.575023 5.4277983 4.0350575 6.5579085
000050 32 d2 c1 40 5c c5 22 40 2e 54 ae 40 db 05 b6 40
       6.0569086 2.5432959 5.447776 5.688215
000060 ca 02 b1 40 8b 2a 88 40 3c 26 b3 40 b4 b5 66 40
       5.5315905 4.255193 5.5984173 3.6048403
000070 f9 48 a2 40 c8 45 c7 40 60 e8 a6 40 ad bb bf 40
       5.071408 6.227268 5.215866 5.9916596
000080 fa 01 7d 40 16 2a a5 40 9d c3 cd 40 fd bb a2 40
       3.9532456 5.1613874 6.4301286 5.085448
000090 ee 31 a0 40 73 2e b8 40 a1 07 85 40 d9 91 75 40
       5.006095 5.75567 4.1571813 3.8370268
0000a0 ef 85 8c 40 f8 4a 5f 40 4a 45 c7 40 c0 cc 68 40
       4.3913493 3.4889507 6.227208 3.637497
0000b0 ee 1e aa 40 fe 13 3c 40 12 d5 9f 40 45 16 6f 40
       5.3162756 2.9387202 4.9947596 3.7357342
0000c0 da 97 bd 40 a5 e8 b3 40 6e 39 a5 40 cb a0 b1 40
       5.9247866 5.622149 5.1632605 5.550878
0000d0 a7 54 b0 40 72 76 42 40 7c d9 a7 40 78 75 00 40
       5.5103335 3.0384793 5.2452984 2.0071697
0000e0 61 18 b8 40 52 86 b6 40 3e c4 6d 40 72 94 8e 40
       5.752976 5.7038965 3.7151027 4.455621
0000f0 14 40 ad 40 7f e9 a0 40 2e 23 45 40 0e a2 b6 40
       5.414072 5.028503 3.0802722 5.707282

fc3.weight f4 [2, 64]
000000 01 b4 8c bd 19 b8 64 bd 9d 1c 06 be 9c 3c b9 3d
       -0.068702705 -0.05583963 -0.13096853 0.090447634
000010 d9 4e df bd 3f 84 a9 bd 1d 19 76 3d a1 74 f9 3d
       -0.10903711 -0.08277177 0.060082544 0.12180448
000020 72 5c 82 bd 6f 20 da 3d c2 42 52 bc 78 92 ce 3d
       -0.06365289 0.106507175 -0.012833299 0.100865304
000030 2d 7b 64 3d 9a 22 93 3d aa 07 66 bd bd 3e d2 3d
       0.055781532 0.07184334 -0.056159653 0.10265873
000040 64 b5 c7 3d 31 47 80 bd 72 23 3c bd b6 bd 57 bd
       0.097513944 -0.06263579 -0.04593224 -0.052671157
000050 c4 32 dd 3d 96 92 9f bd 79 dc ab bd 0d ea 88 bd
       0.108006984 -0.07791631 -0.08391661 -0.06685267
000060 70 51 95 bd da 93 85 bd 00 ac 91 bd 92 85 8f 3d
       -0.072909236 -0.06522341 -0.071128845 0.070078984
000070 c5 81 a0 bd 09 0f ad 3d 62 bd da 3d 43 5c 10 3e
       -0.078372516 0.08450133 0.10680653 0.14097695
000080 82 71 de 3d 7d 3e 9d bd 6b 2c 20 bd d8 3a 98 bd
       0.10861494 -0.07677934 -0.03910486 -0.074330986
000090 d4 b9 01 3e 35 98 a7 3d 95 8f de 3d 9c c5 d4 bd
       0.12668544 0.08183328 0.1086723 -0.103892535
0000a0 92 c9 88 bd 8c 1f ce 3d 71 66 bf 3d d3 0d f2 3d
       -0.066790715 0.10064611 0.09345711 0.11819043
0000b0 80 7a 6d bd c2 34 25 be 4e 4d 96 3d 26 84 3f 3e
       -0.057978153 -0.16133407 0.073389634 0.18702754
0000c0 17 8d 09 3e 55 f2 71 3d 90 da c2 3d e2 5f 95 bd
       0.13432728 0.059068996 0.09514344 -0.07293679
0000d0 72 6f c1 3d ab e3 51 bc a3 32 4d bd d7 aa 01 3b
       0.09445085 -0.012810628 -0.05009712 0.0019785666
0000e0 fe 30 a3 3d 49 09 f5 3d 8c 18 6b bc 2e 1b 5c bd
       0.07968329 0.11964662 -0.014349114 -0.053736858
0000f0 01 9b 3c bd 55 99 96 bd 2e 6f a1 bc b6 1d b8 3d
       -0.04604626 -0.073534645 -0.019706335 0.08990042
000100 b7 b3 c4 bd 8c 09 b1 bd c8 b2 26 bd 0e d9 77 3d
       -0.096045904 -0.08644399 -0.040697843 0.060509734
000110 c7 af d5 bd 8e 5a ff bd 51 bd 9b 3d 0b 10 8b 3d
       -0.104339175 -0.12468444 0.076044686 0.06790169
000120 a0 fc cc bd b2 b7 c5 3d a7 5c a5 bd 08 bb 6c 3d
       -0.10009122 0.09654178 -0.08074313 0.057795554
000130 28 33 87 3d f8 b0 9a 3d 41 4b e1 bd 2f 18 16 3e
       0.06601554 0.07553285 -0.11000682 0.14657663
000140 56 b1 83 3d 79 58 b1 bd 15 c5 f7 bd 6b c3 d6 bd
       0.064303085 -0.08659453 -0.12098137 -0.10486492
000150 f0 95 bc 3d ae 00 ae bd 5b 6f 84 bd c7 df c1 bd
       0.09208286 -0.084962234 -0.06466552 -0.0946651
000160 4b 92 db bd 49 f7 f2 bd 1c 71 a4 bd be 5e bb 3d
       -0.107212625 -0.11863572 -0.080293864 0.0914893
000170 c3 e8 13 bd 46 ef 8c 3d 5d 11 ab 3d 39 2d 34 3d
       -0.03611065 0.06881575 0.08352921 0.04398844
000180 37 46 10 3e 17 38 ae bd a3 22 c4 bd 48 64 43 bd
       0.14089285 -0.08506792 -0.09576919 -0.047703058
000190 15 a4 03 3d ba f1 ae 3d 35 26 b6 3b 3f be 3f bd
       0.032138903 0.085421994 0.005558754 -0.046812292
0001a0 74 a4 9d bd b4 9b fd bc 70 ee a1 3d c4 68 e1 3d
       -0.076973826 -0.030958034 0.079068065 0.110063106
0001b0 d0 cd c9 bd 38 22 50 3c 9f 5f ef 3c 9e 2e 33 3e
       -0.09853709 0.012703471 0.0292204 0.17498252
0001c0 4a c7 98 3d f1 12 d7 3d c3 c7 c6 3d 78 d7 99 bd
       0.07459886 0.1050166 0.0970607 -0.075118005
0001d0 3a 32 3a 3d 7c 24 02 be 9c a1 af bd 70 c3 ec bd
       0.045458056 -0.1270923 -0.085757464 -0.11560714
0001e0 cb 15 77 3d c5 7b 1c 3d 99 68 cd bd c2 18 92 bd
       0.060323518 0.038203973 -0.10029716 -0.071336284
0001f0 34 cb 04 be 13 0c ad bd ad e5 db bd 57 54 d4 3d
       -0.12968141 -0.084495686 -0.107371666 0.10367649

fc3.bias f4 [2]
000000 9d 42 da 3e da bb 03 bf
       0.42628947 -0.51458514
