models/best_multiclass_nn_model.pth (torch, 122409 bytes, 14 tensors)

fc1.weight f4 [128, 154]
0	0xbe1f5cef	-0.15562795
1	0xbde806d9	-0.11329431
2	0x3dfe237a	0.1240911
3	0xbe601f3b	-0.21886913
4	0xbdd7f592	-0.10544886
5	0xbe2487c7	-0.1606742
6	0x3e724917	0.23660694
7	0xbd334389	-0.04376558
8	0xbd25c1b9	-0.04046795
9	0xbe92523d	-0.28578368
10	0xbea715e2	-0.32633883
11	0xbe3bd75d	-0.18343873
12	0xbdcdfd48	-0.10058075
13	0xbdda0914	-0.10646263
14	0xbde883c5	-0.11353258
15	0x3e6fca25	0.23416956
16	0x3ec45437	0.383455
17	0x3d873911	0.066026814
18	0x3cb3f6fb	0.021968355
19	0x3de3e49f	0.111275904
20	0x3ddd68bd	0.10810993
21	0x3e58c73d	0.21169753
22	0xbd43cc3d	-0.0478022
23	0x3dde042b	0.10840639
24	0xbe1430d3	-0.1447175
25	0x3e3510ba	0.17682162
26	0x3d78f694	0.06078203
27	0x3d8a0359	0.0673892
28	0x3dea8778	0.1145162
29	0xbd940b83	-0.07228758
30	0x3b09d398	0.002103066
31	0xbccacde9	-0.024756389
32	0xbe173b2b	-0.14768665
33	0xbd3eb86b	-0.046562593
34	0xbd0d46a1	-0.034491185
35	0x3e1e892d	0.15482016
36	0xbd0f3bab	-0.034969013
37	0x3c75c0ab	0.014999549
38	0x3da4fbef	0.08055865
39	0x3dd6c39c	0.10486528
40	0x3c3702f0	0.011170134
41	0x3c206229	0.009789028
42	0x3bf4612a	0.007457872
43	0x3d85450f	0.065073125
44	0x3d2959e7	0.041345503
45	0x3e43ec81	0.19133188
46	0x3c85ecce	0.016348269
47	0x3e0209c5	0.1269904
48	0xbd8fa12d	-0.07013164
49	0x3d27ca47	0.04096439
50	0xbd982ec8	-0.07430798
51	0x3dbf4166	0.09338646
52	0x3e84ae2e	0.2591414
53	0xbe38b054	-0.18036014
54	0xbe03aa1b	-0.12857859
55	0x3e2b4e46	0.16729078
56	0x3e3d0892	0.184603
57	0x3d28a318	0.041171163
58	0x3cadcd96	0.021216195
59	0xbd809cce	-0.06279908
60	0x3d14392f	0.036187347
61	0x3e1f73a3	0.15571456
62	0x3dfb82bf	0.12280797
63	0xbd27c035	-0.040954787
64	0xbd6341c9	-0.05548266
65	0x3d02e351	0.031955067
66	0x3e38ef93	0.1806014
67	0x3e81ab13	0.25325832
68	0x3e0bf892	0.13669041
69	0xbe129cd8	-0.14317644
70	0xbda4257a	-0.080149606
71	0xbe1f2e96	-0.15545115
72	0x3db304a3	0.08741119
73	0xbbbf0dbf	-0.005830496
74	0x3e13f45b	0.14448683
75	0xbd2a3e13	-0.041563105
76	0xbdca6216	-0.0988199
77	0xbd5901b4	-0.05298014
78	0xbd6ef203	-0.05833627
79	0xbd9a3e1f	-0.0753138
80	0xbcaa5eea	-0.020797212
81	0x3e027821	0.12741138
82	0xbdad2b5e	-0.08455537
83	0xbdab0dba	-0.083522275
84	0xbc2243c1	-0.009903849
85	0x3df4eaac	0.119588226
86	0xbc8ca29a	-0.017167378
87	0xbc05105d	-0.008121577
88	0xbd470fc1	-0.04859901
89	0x3e27df3f	0.16393755
90	0x3d60783a	0.054802157
91	0xbd40b1c0	-0.047044516
92	0xbd5ebed1	-0.054381195
93	0xbd870ca4	-0.06594208
94	0x3e35f051	0.17767455
95	0xbd1656cd	-0.036703873
96	0xbd6a5fa4	-0.057220116
97	0x3df1225d	0.117741324
98	0x3dce92a6	0.10086565
99	0x3da0fc37	0.07860606
100	0xbcab4454	-0.020906605
101	0xbdc94de0	-0.098293066
102	0xbd0604d2	-0.03271944
103	0xbe0e4d37	-0.13896643
104	0xbde2011d	-0.110353686
105	0x3e3e29db	0.18570654
106	0x3e8fe197	0.281018
107	0x3c89b859	0.016811537
108	0xbd276c7f	-0.040874954
109	0x3dadaeeb	0.084806286
110	0xbd91d0f0	-0.0711993
111	0x3e6110a6	0.21979007
112	0x3ca443d0	0.020051867
113	0x3e103553	0.14082842
114	0xbdd4153c	-0.10355613
115	0xbd8d7fa3	-0.069091104
116	0xbe0f9b34	-0.14024049
117	0x3c9a9789	0.018871086
118	0x3e0be801	0.13662721
119	0x3d699c0f	0.057033595
120	0x3e147f78	0.1450175
121	0xbc5c17b1	-0.013433383
122	0xbdc52026	-0.096252725
123	0x3daa427a	0.08313461
124	0xbd35d6e1	-0.044394378
125	0x3e0d1a4d	0.13779564
126	0x3d9ddf57	0.07708614
127	0x3dba315d	0.090914465
128	0x3d8f6cb9	0.07003159
129	0xbdc19363	-0.0945194
130	0xbd1f5f67	-0.038909342
131	0x3c5ffa9b	0.013670589
132	0x3e982a0b	0.29719576
133	0x3d801fd5	0.062560715
134	0x3d96f20c	0.073703855
135	0x3d653df7	0.055967297
136	0xbd75ee83	-0.060041916
137	0x3e207253	0.15668611
138	0xbdf4b23f	-0.1194806
139	0x3d5fc18a	0.054627933
140	0x3da9ab34	0.082846075
141	0xbde0f963	-0.10985067
142	0x3deae05a	0.11468573
143	0x3e529085	0.20562942
144	0xbd98af1c	-0.074552745
145	0x3ddb261f	0.107006304
146	0x3dd49058	0.10379094
147	0x3e1c278b	0.1524946
148	0x3dfc98c0	0.12333822
149	0xbc48fbdc	-0.012267079
150	0xbd820c90	-0.06350052
151	0xbe02e499	-0.12782516
152	0xbda804fc	-0.08204076
153	0xbd8e0e1f	-0.06936287
154	0xbd8b84c5	-0.06812433
155	0xbe21ab24	-0.15787941
156	0x3e18136b	0.14851157
157	0xbe951aaa	-0.29121906
158	0xbd4301c5	-0.04760911
159	0xbe7af71c	-0.24508327
160	0x3d68a23f	0.056795355
161	0xbe74770a	-0.23873535
162	0xbede21c2	-0.4338513
163	0x3da9fe28	0.083004296
164	0xbef9dfd1	-0.4880357
165	0xbe1df70c	-0.15426272
166	0xbe1d3003	-0.15350346
167	0x3de3c178	0.111208856
168	0xbbc7e64c	-0.0061004516
169	0x3e16af6c	0.14715356
170	0x3e348af8	0.17631137
171	0xbe0950ae	-0.13409683
172	0x3d98bffb	0.07458492
173	0x3e835012	0.25647026
174	0x3da4e4bb	0.080514394
175	0x3e810efd	0.25206748
176	0x3e591f80	0.21203423
177	0xbd8a923a	-0.06766172
178	0xbba1c5c0	-0.0049369037
179	0x3e552621	0.20815326
180	0xbcb72b6a	-0.022359569
181	0x3d9a9897	0.075486355
182	0xbc66b3d7	-0.014080963
183	0xbe12ec48	-0.14347947
184	0x3d890c5e	0.06691812
185	0x3d7cfc31	0.061763946
186	0x3dde4f67	0.108549885
187	0xbcb4e291	-0.022080692
188	0xbcdbb968	-0.026821807
189	0x3e542d11	0.20720316
190	0x3e016050	0.12634397
191	0xbd26a309	-0.040682826
192	0xbc0e2073	-0.008674729
193	0x3e415e08	0.18883526
194	0x3cc9e666	0.024645995
195	0x3dcca4f3	0.09992399
196	0x3e20e5b0	0.15712619
197	0x3c9db078	0.019249186
198	0x3d2c6137	0.0420849
199	0x3de15021	0.110016115
200	0xbd066b98	-0.032817453
201	0x3d84370d	0.064558126
202	0xbdf8a572	-0.12140931
203	0x3db67ad9	0.0891015
204	0x3d5f55f5	0.054525334
205	0x3dfde3a3	0.12396934
206	0x3e303375	0.1720713
207	0x3cf0753d	0.029352779
208	0xbdd7902d	-0.10525546
209	0x3e05be67	0.13060914
210	0x3e820613	0.2539526
211	0x3da7b0f6	0.081880495
212	0x3d641b9f	0.055690404
213	0x3d883195	0.06650082
214	0x3dfa647c	0.12226197
215	0xbdf4da7c	-0.11955735
216	0x3dae21ea	0.08502562
217	0x3cf7be0b	0.030241987
218	0xbd8d7806	-0.06907658
219	0x3de81a96	0.11333196
220	0xbcf2fa80	-0.029660463
221	0x3e841379	0.25796106
222	0x3dd39555	0.10331217
223	0xbd3ac8d0	-0.045601666
224	0xbdb64417	-0.08899706
225	0x3dfe5e87	0.124203734
226	0x3daae6af	0.08344781
227	0x3ead0b3f	0.33797643
228	0x3e092ad5	0.13395245
229	0x3e963b3a	0.2934206
230	0xbce70aa8	-0.028203323
231	0xbda894a6	-0.082314774
232	0xbe2024d0	-0.15639043
233	0x3d5dad03	0.054120075
234	0x3dcd587c	0.10026643
235	0x3dad8031	0.08471716
236	0x3cddfc6f	0.027097909
237	0x3d54e8d6	0.051979862
238	0x3d14dd00	0.036343575
239	0xbd9f003c	-0.077637166
240	0xbdd0afdd	-0.10189793
241	0xbde95fb8	-0.1139521
242	0xbd9a095a	-0.07521315
243	0x3e56bc22	0.20970204
244	0xbd9d7eca	-0.07690199
245	0xbdde6510	-0.1085912
246	0xbdde5e2c	-0.108578056
247	0xbc98a2cf	-0.01863232
248	0x3caecd49	0.021338122
249	0xbdd5ace1	-0.10433365
250	0x3e12c3fb	0.14332573
251	0x3e1edfbd	0.15515037
252	0x3bb5fef5	0.005554075
253	0x3b3c6396	0.0028745881
254	0xbc1cfb1f	-0.009581356
255	0xbdf45e7a	-0.119320825

fc1.bias f4 [128]
0	0x3d7e3f9a	0.062072374
1	0x3d8e11cf	0.069369905
2	0x3c9ee0c5	0.019394288
3	0xbd354500	-0.044255257
4	0x3d69d653	0.05708916
5	0x39a01b85	0.00030538082
6	0xbcde0240	-0.027100682
7	0x3c8d7883	0.017269379
8	0x3d4f7f4f	0.05065852
9	0xbbce58bf	-0.0062972005
10	0xbda7c263	-0.08191373
11	0xbcb8daaa	-0.022565205
12	0x3d7690d3	0.06019671
13	0x3aa5c32b	0.0012646666
14	0xbb9f5e70	-0.0048635527
15	0xbcb6b842	-0.022304658
16	0x3bb08a2d	0.0053875656
17	0xbd984db8	-0.07436699
18	0xbbc7a738	-0.006092932
19	0x3d4564f3	0.048191976
20	0xbc0c1356	-0.008549532
21	0x3d931879	0.07182402
22	0x3d1c8cc2	0.038220175
23	0x3d51c806	0.051216148
24	0x3c46113c	0.01208907
25	0x3cbfe8d3	0.023426449
26	0xbc6cbb89	-0.014449009
27	0x3cbb693a	0.022877324
28	0x3d4c5ce0	0.04989326
29	0x3d89fca3	0.0673764
30	0xbdadc0d2	-0.08484043
31	0xbd0241a3	-0.031800877
32	0xbd13bfc2	-0.036071546
33	0x3d9e5162	0.07730366
34	0x3d6032f2	0.054736085
35	0x3d6bd2ba	0.05757401
36	0x3c6e58ce	0.01454754
37	0xbbabc8eb	-0.005242457
38	0xbd6fa0e8	-0.05850306
39	0x3c4817ad	0.012212676
40	0xbaf6981b	-0.0018813642
41	0x3cf63079	0.03005241
42	0xbb75ef0c	-0.0037526516
43	0xbd455a16	-0.048181616
44	0x3cf4868b	0.029849311
45	0x3d7c07d2	0.061530896
46	0x3d9bacc4	0.07601312
47	0xbd2b2815	-0.041786272
48	0x3c129b8e	0.00894822
49	0x3cc72520	0.024309695
50	0x3da16612	0.078807965
51	0xbd31ee50	-0.043440163
52	0xbd43e248	-0.04782322
53	0x3d5f011d	0.05444442
54	0xbd1b612a	-0.03793446
55	0x3d8d519d	0.06900332
56	0x3d5837a5	0.05278744
57	0xbcadb674	-0.021205164
58	0x3cdff51b	0.027338555
59	0xbd923535	-0.07139055
60	0x3d49ae87	0.049238708
61	0x3cc7cddc	0.024390154
62	0x3d423526	0.047413968
63	0xbcfb5f16	-0.030684989
64	0x3d8b52eb	0.06802925
65	0x3cfb5137	0.030678375
66	0xbd82c853	-0.06385865
67	0xbd900ab6	-0.07033293
68	0x3d25ebeb	0.040508192
69	0xbca4d5d7	-0.020121498
70	0xbc44ecf5	-0.012019386
71	0xbc684917	-0.014177582
72	0xbd0856fd	-0.033286083
73	0x3caeca43	0.02133668
74	0xbc8232da	-0.015893389
75	0xbcc1f48a	-0.023676176
76	0xbaefe269	-0.0018301728
77	0x3d9239ee	0.071399555
78	0x3d0d8292	0.03454835
79	0x3c427ef3	0.011871087
80	0x3d3aba62	0.045587905
81	0xbd7b70e4	-0.061386958
82	0xbd7774ab	-0.060413998
83	0xbd808c86	-0.06276803
84	0x3ca5f793	0.020259654
85	0x3cb77680	0.022395372
86	0xbd9959cc	-0.074878305
87	0x3c350463	0.011048409
88	0xbd935087	-0.07193094
89	0x3d4a3c2c	0.04937379
90	0xbd308b96	-0.04310187
91	0xbd774873	-0.060371827
92	0xbd06fd7b	-0.03295658
93	0x3d4dd831	0.050255004
94	0x3b93867c	0.004502116
95	0x3cf3f283	0.029778725
96	0xbce65840	-0.028118253
97	0xbd723221	-0.059129838
98	0x3d4778b1	0.048699085
99	0x3c8572f2	0.016290162
100	0xbd206606	-0.039159797
101	0xbd8cb08b	-0.068696104
102	0xbcb06191	-0.021530898
103	0x3d20d730	0.03926772
104	0xbd457e08	-0.048215896
105	0xbb8f0d7e	-0.004365622
106	0x3cc32ef1	0.023826094
107	0xbd709502	-0.058735855
108	0x3d196ad1	0.037455384
109	0x3bf748a8	0.007546503
110	0x3d98e537	0.07465594
111	0x3bedff93	0.007263133
112	0xbd8d54aa	-0.06900914
113	0xbd8714b8	-0.06595749
114	0xbd3fd01f	-0.04682934
115	0xbc7339af	-0.014845296
116	0x3d29801a	0.041381933
117	0x3da755be	0.08170651
118	0x3d54d4aa	0.051960625
119	0x3d6030a8	0.054733902
120	0xbd3a6d60	-0.045514464
121	0x3d4072cf	0.04698449
122	0x3d668c72	0.056286283
123	0xbd91e1b3	-0.07123127
124	0x3da6bef9	0.08141894
125	0x3c7a9c73	0.015296089
126	0xbd136ff0	-0.035995424
127	0x3d13e6f1	0.036108915

bn1.weight f4 [128]
0	0x3f5f1300	0.87138367
1	0x3f698391	0.9121638
2	0x3f5b2fac	0.85619617
3	0x3f7fd621	0.9993611
4	0x3f663c55	0.8993581
5	0x3f72f4b9	0.9490467
6	0x3f87f3f2	1.0621321
7	0x3f633a68	0.88760996
8	0x3f7c956d	0.98665506
9	0x3f636781	0.8882981
10	0x3f735fa7	0.9506783
11	0x3f74b0d5	0.95582324
12	0x3f785d44	0.9701731
13	0x3f546248	0.82962465
14	0x3f6c9a7c	0.92423224
15	0x3f7728de	0.96546733
16	0x3f6e4940	0.9308052
17	0x3f478105	0.77931243
18	0x3f740a86	0.9532856
19	0x3f7bc317	0.9834456
20	0x3f6c16dc	0.9222238
21	0x3f68ae7f	0.9089126
22	0x3f7aeb50	0.9801531
23	0x3f859f66	1.043927
24	0x3f4dd5ac	0.8040416
25	0x3f64bf58	0.8935447
26	0x3f6c8cd4	0.92402387
27	0x3f77dda0	0.9682255
28	0x3f7ca3bb	0.9868733
29	0x3f614747	0.87999386
30	0x3f77a26b	0.96732205
31	0x3f5562a5	0.83353645
32	0x3f6f03ee	0.9336537
33	0x3f6f1749	0.93394905
34	0x3f5ee3d8	0.8706641
35	0x3f712a6b	0.9420535
36	0x3f6d15fb	0.92611665
37	0x3f75ca70	0.9601202
38	0x3f7dc261	0.99124724
39	0x3f6ba007	0.9204106
40	0x3f534619	0.82528836
41	0x3f7f2520	0.99666023
42	0x3f5f90d2	0.87330353
43	0x3f8520fb	1.040069
44	0x3f73737d	0.95098096
45	0x3f6e51fa	0.93093836
46	0x3f7551e1	0.9582806
47	0x3f743126	0.95387495
48	0x3f3e0df0	0.74240017
49	0x3f6dc94b	0.92885274
50	0x3f6f7a99	0.93546444
51	0x3f74284d	0.95373994
52	0x3f6bd198	0.9211669
53	0x3f66f83a	0.90222514
54	0x3f79260f	0.973237
55	0x3f620521	0.88289076
56	0x3f5414e2	0.82844365
57	0x3f5bdfee	0.85888565
58	0x3f730bfb	0.94940156
59	0x3f55788d	0.8338707
60	0x3f6a29d6	0.91470087
61	0x3f7a8ffb	0.97875947
62	0x3f6afbcf	0.9179048
63	0x3f840be2	1.0316126
64	0x3f527c70	0.82221127
65	0x3f6583f3	0.89654464
66	0x3f6b6215	0.91946536
67	0x3f6dea07	0.9293522
68	0x3f7e41ac	0.9931896
69	0x3f663c07	0.89935344
70	0x3f736f9a	0.95092165
71	0x3f7e7c3a	0.99408305
72	0x3f795add	0.9740427
73	0x3f4f9f99	0.811029
74	0x3f3a6f9b	0.72826546
75	0x3f64ec34	0.8942292
76	0x3f6b2dcd	0.9186676
77	0x3f730ed6	0.9494451
78	0x3f7ab049	0.9792524
79	0x3f7041aa	0.93850195
80	0x3f3fcdc6	0.7492336
81	0x3f665f90	0.89989567
82	0x3f6e356c	0.93050265
83	0x3f719106	0.94361913
84	0x3f6f7d28	0.9355035
85	0x3f6fe4c6	0.93708456
86	0x3f6bf710	0.9217386
87	0x3f5800c7	0.84376186
88	0x3f5afd45	0.8554271
89	0x3f69f10c	0.91383433
90	0x3f7f97a5	0.99840766
91	0x3f838d7e	1.0277555
92	0x3f6a8c4c	0.91620326
93	0x3f724332	0.9463378
94	0x3f7d2703	0.9888765
95	0x3f5ddf04	0.8666842
96	0x3f8096b6	1.0045993
97	0x3f6794a6	0.90461195
98	0x3f6d6721	0.9273549
99	0x3f67b3d9	0.905088
100	0x3f5cba1b	0.86221474
101	0x3f79e5df	0.9761638
102	0x3f5a7df5	0.85348445
103	0x3f7b0231	0.9805022
104	0x3f54fa43	0.8319437
105	0x3f74da2c	0.95645404
106	0x3f6fc00c	0.93652415
107	0x3f5ed5fa	0.8704525
108	0x3f5b80ae	0.85743225
109	0x3f7781e2	0.9668256
110	0x3f70a870	0.94007015
111	0x3f8392b8	1.027915
112	0x3f6c941e	0.9241351
113	0x3f8015bf	1.0006636
114	0x3f60bb84	0.87786126
115	0x3f6bfe8a	0.9218527
116	0x3f670ecf	0.9025697
117	0x3f5b1ffe	0.8559569
118	0x3f71ec15	0.9450086
119	0x3f82874a	1.0197537
120	0x3f7833f5	0.9695428
121	0x3f77276e	0.9654454
122	0x3f800ba6	1.0003555
123	0x3f819313	1.0123008
124	0x3f51918b	0.81862706
125	0x3f606690	0.876565
126	0x3f801862	1.0007441
127	0x3f5e197e	0.8675765

bn1.bias f4 [128]
0	0xbede9bcf	-0.43478248
1	0xbecd3f0a	-0.40087157
2	0xbece6c6a	-0.40317088
3	0xbec336b3	-0.3812767
4	0xbe4eb9be	-0.20188043
5	0xbe92d5a5	-0.28678623
6	0xbf1637a0	-0.58678627
7	0xbea85a67	-0.32881472
8	0xbf1571e5	-0.58376914
9	0xbe4d9f09	-0.20080198
10	0xbebbb760	-0.36663342
11	0xbe9023ce	-0.28152317
12	0xbe86b9a6	-0.26313514
13	0xbee78756	-0.4522044
14	0xbeee13f8	-0.4649961
15	0xbecd3254	-0.4007746
16	0xbf0bdc48	-0.54633
17	0xbeb49e78	-0.35277152
18	0xbea510c7	-0.32239363
19	0xbef974a1	-0.48721793
20	0xbe9e53fe	-0.30923456
21	0xbf0860ef	-0.5327291
22	0xbe8849aa	-0.266187
23	0xbebf899d	-0.37409678
24	0xbeb23541	-0.34806255
25	0xbe24d8e1	-0.16098358
26	0xbe31a7f3	-0.17349224
27	0xbedca310	-0.43093157
28	0xbef0037d	-0.4687766
29	0xbf01c1db	-0.50686425
30	0xbe9a171d	-0.3009576
31	0xbeac23a5	-0.33620945
32	0xbeabd3e0	-0.33560085
33	0xbecb1fba	-0.39672643
34	0xbea155ff	-0.31510922
35	0xbedbb247	-0.42909452
36	0xbe8a299c	-0.2698487
37	0xbf08cc5a	-0.53436816
38	0xbeac2f63	-0.33629903
39	0xbeab6942	-0.33478743
40	0xbf09acce	-0.53779304
41	0xbe92f5e9	-0.2870324
42	0xbedeccc1	-0.4351559
43	0xbeff4f8d	-0.4986538
44	0xbed506b6	-0.41606683
45	0xbec1b258	-0.37831378
46	0xbe8d85f7	-0.2764127
47	0xbeb6ca44	-0.3570119
48	0xbe86abb8	-0.26302886
49	0xbed08341	-0.4072514
50	0xbe83e3d4	-0.25759757
51	0xbeeb20b3	-0.45923385
52	0xbe8c7f55	-0.27440897
53	0xbedb6d47	-0.4285681
54	0xbe289a0a	-0.16465011
55	0xbeb48f32	-0.352655
56	0xbec988f7	-0.39362308
57	0xbef37f7e	-0.47558206
58	0xbe9c5556	-0.30533856
59	0xbe81c564	-0.2534591
60	0xbf0cb8f6	-0.5496973
61	0xbf1227dd	-0.57092077
62	0xbec0a8f6	-0.37628907
63	0xbf0eaa16	-0.5572828
64	0xbe90313d	-0.28162566
65	0xbec54b08	-0.38533807
66	0xbe9b78c9	-0.3036559
67	0xbed5d114	-0.41761076
68	0xbef6f533	-0.48233947
69	0xbeb4f840	-0.3534565
70	0xbed60a59	-0.4180477
71	0xbeb04947	-0.34430906
72	0xbf224994	-0.6339352
73	0xbeb51aa0	-0.35371876
74	0xbe6c552e	-0.23079368
75	0xbef648a6	-0.481023
76	0xbeaeaa5b	-0.34114346
77	0xbeb8ae08	-0.36070275
78	0xbe79d80a	-0.24398819
79	0xbf1b11a8	-0.60573816
80	0xbe951bed	-0.29122868
81	0xbedf1c9e	-0.4357652
82	0xbe4cdbdd	-0.20005746
83	0xbe814ae8	-0.2525246
84	0xbed7ffa5	-0.4218723
85	0xbee16918	-0.44025493
86	0xbecc376d	-0.39886037
87	0xbeb44c3a	-0.35214406
88	0xbedf5f46	-0.43627375
89	0xbe8ab3c4	-0.27090275
90	0xbef4c075	-0.47803083
91	0xbe886fdb	-0.2664784
92	0xbee13050	-0.43982172
93	0xbe51078c	-0.20413035
94	0xbedb9853	-0.42889652
95	0xbeb460fd	-0.35230246
96	0xbedbe1a0	-0.42945576
97	0xbe88639e	-0.26638502
98	0xbee20c13	-0.44149837
99	0xbee709c0	-0.45124626
100	0xbe986bc2	-0.29769713
101	0xbe9649e0	-0.29353237
102	0xbe69d063	-0.228334
103	0xbe8580d0	-0.2607484
104	0xbec9db8d	-0.39425316
105	0xbecc38b8	-0.39887023
106	0xbe223192	-0.15839222
107	0xbe9e0e16	-0.30870122
108	0xbecd2b44	-0.40072072
109	0xbf0a1dd6	-0.53951776
110	0xbeaf132c	-0.34194314
111	0xbe47fbed	-0.19529696
112	0xbf0d2a03	-0.5514223
113	0xbef5b61c	-0.479905
114	0xbed7bb29	-0.4213498
115	0xbe626d38	-0.22111976
116	0xbeac7a8d	-0.3368725
117	0xbe9f67c2	-0.31133848
118	0xbf1cc0a5	-0.6123145
119	0xbf3c852f	-0.7364072
120	0xbf34efc6	-0.70678365
121	0xbe9328b8	-0.28742003
122	0xbef8001a	-0.48437577
123	0xbf06eec3	-0.5270807
124	0xbe41700c	-0.18890399
125	0xbf3a206e	-0.72705734
126	0xbe9602ce	-0.29299015
127	0xbeca9d0e	-0.39572948

bn1.running_mean f4 [128]
0	0x3d5e3610	0.054250777
1	0x3d209cec	0.039212152
2	0x3c621ab2	0.01380031
3	0xbd11f03f	-0.035629507
4	0x3db8da10	0.09025967
5	0xbb4313dd	-0.0029766478
6	0xbd917d8c	-0.07104024
7	0xbc3a39e4	-0.011366341
8	0x3c65728e	0.014004363
9	0x3c742994	0.014902491
10	0xbd82bc3c	-0.06383559
11	0xbd194584	-0.03741981
12	0x3def807c	0.11694428
13	0x3cb95084	0.0226214
14	0x3d4a451c	0.049382314
15	0xbbe356ee	-0.006937853
16	0x3d12f58d	0.035878707
17	0xbdeb4110	-0.11487019
18	0xbc8c93a6	-0.017160248
19	0x3dac887b	0.08424469
20	0xbcf93874	-0.030422427
21	0x3d88eeec	0.06686196
22	0x3d60685e	0.054787032
23	0x3da3e73e	0.0800309
24	0xbd851383	-0.06497862
25	0x3d486d1e	0.048932187
26	0xbd15b945	-0.03655364
27	0x3d39a6f2	0.045325227
28	0x3cb16aef	0.021657435
29	0x3d6704cf	0.05640107
30	0xbde21e6d	-0.110409595
31	0xbd751314	-0.059832647
32	0xbd91bf5d	-0.07116578
33	0x3e01506b	0.12628333
34	0x3d879b12	0.06621374
35	0x3d64ea8e	0.05588775
36	0xbc73a1ae	-0.01487009
37	0x3cf6dad8	0.03013365
38	0xbc602cbe	-0.013682542
39	0x3b339d80	0.002740711
40	0xbca727ae	-0.020404663
41	0x3d253468	0.04033318
42	0x3d4bad5c	0.049725875
43	0xbcad7449	-0.021173613
44	0x3ca3f88a	0.020015974
45	0x3d9c7d94	0.076411396
46	0x3d43b7df	0.047782775
47	0xbd866e22	-0.06563975
48	0x3c82151d	0.015879208
49	0x3bfd9962	0.007739232
50	0x3db05396	0.08609693
51	0xbd140cc0	-0.03614497
52	0xbccfee92	-0.025382314
53	0x3b3027e4	0.0026879245
54	0xbd0d6024	-0.034515515
55	0x3d88e78b	0.06684788
56	0x3d363738	0.044486254
57	0xbd3252f4	-0.04353614
58	0x3b0cc578	0.0021480005
59	0xbdc82b5f	-0.097738974
60	0x3d4e4242	0.050356157
61	0xbc8e5657	-0.017375154
62	0x3d4a661d	0.04941379
63	0xbc56794e	-0.013090445
64	0x3e171177	0.14752756
65	0x3d1870e6	0.037217043
66	0xbd4e6e57	-0.050398197
67	0xbda2a76e	-0.07942091
68	0x3d6ca3d9	0.057773445
69	0xbc1697a1	-0.009191425
70	0x3cd508b0	0.02600512
71	0xbcfb0827	-0.030643536
72	0xbd69373a	-0.056937434
73	0xbb434870	-0.0029797815
74	0xbb607fec	-0.0034255935
75	0xbd8b2508	-0.067941725
76	0x3d5f88e8	0.054573923
77	0x3dbb9179	0.09158606
78	0x3cb11869	0.021618085
79	0xbc56f286	-0.0131193455
80	0x3d44f8a4	0.048088685
81	0x3b76182a	0.0037551024
82	0xbc843a8d	-0.0161412
83	0xbd91ee56	-0.07125537
84	0x3db773e3	0.089576505
85	0x3ba0b010	0.004903801
86	0xbd926ae8	-0.07149297
87	0xbd026750	-0.031836808
88	0xbd608d56	-0.05482229
89	0x3cf122c6	0.029435527
90	0xbabc60b0	-0.0014372077
91	0xbd92a8e0	-0.071611166
92	0xbd9ad1e0	-0.07559562
93	0x3d379650	0.044821084
94	0x3c504a18	0.012712978
95	0x3d7631a4	0.060105935
96	0xbc3fa690	-0.011697426
97	0xbca9304e	-0.020652916
98	0x3d6aad18	0.05729398
99	0x3c8b4984	0.017002828
100	0xbcf70b6b	-0.030156812
101	0xbd991cea	-0.07476218
102	0x3c6b1055	0.014347156
103	0x3d84a3a1	0.06476522
104	0xbd187902	-0.037224777
105	0xbb7c3c08	-0.003848793
106	0x3ca5c39e	0.02023488
107	0xbca0eeb7	-0.019645078
108	0x3da16899	0.078812785
109	0x3d937a24	0.07201031
110	0x3dd594b6	0.10428755
111	0x3d4a67b7	0.049415316
112	0xbd81106a	-0.06301959
113	0xbc6140b8	-0.01374834
114	0xbd34b563	-0.044118296
115	0x3a91cdd3	0.0011123962
116	0xbc8e5cc2	-0.017378215
117	0x3d91a789	0.07112033
118	0x3c5724ba	0.013131315
119	0x3d40d445	0.047077436
120	0xbc979f35	-0.018508533
121	0x3d12c0de	0.035828464
122	0x3d114e92	0.03547532
123	0xbd2be278	-0.041964024
124	0x3dba95e7	0.09110623
125	0x3da04f4c	0.07827625
126	0xbc9c9738	-0.019115075
127	0x3cd1d25d	0.025613004

bn1.running_var f4 [128]
0	0x3ff47e56	1.9101055
1	0x401f4c7c	2.4890432
2	0x4018009f	2.375038
3	0x402fb8e7	2.7456605
4	0x40605feb	3.5058544
5	0x402a403d	2.6601708
6	0x4027c5b4	2.6214418
7	0x406cf0fd	3.7022088
8	0x402aab1c	2.6666937
9	0x403c46ce	2.9418216
10	0x40398d7f	2.8992612
11	0x40193c4d	2.3943055
12	0x40486da5	3.1316922
13	0x4013faff	2.3121946
14	0x40703749	3.7533743
15	0x40246231	2.5684931
16	0x403b54f6	2.9270606
17	0x4025b048	2.5888844
18	0x406ec34d	3.7306702
19	0x4048fb16	3.140325
20	0x4028ee21	2.6395342
21	0x4010f3ee	2.2648883
22	0x40542c9e	3.3152232
23	0x4040a82c	3.0102644
24	0x4015b966	2.3394408
25	0x402f3e34	2.7381716
26	0x4034ef23	2.8270957
27	0x402290f7	2.540098
28	0x401fe0a7	2.4980867
29	0x3fd76cbd	1.6830059
30	0x4033d8fe	2.8101192
31	0x40089065	2.1338131
32	0x400e1aaa	2.2203774
33	0x401feb3c	2.4987326
34	0x401c4fe4	2.4423761
35	0x4016d8b6	2.356977
36	0x401f329b	2.4874637
37	0x404188c4	3.0239725
38	0x4082d891	4.0889363
39	0x406be091	3.6855814
40	0x400fbeb0	2.2460136
41	0x4031d43a	2.7785783
42	0x40297014	2.6474657
43	0x40781197	3.8760736
44	0x40142f6d	2.3153946
45	0x4017f44d	2.374286
46	0x40288bb6	2.6335273
47	0x40510a25	3.2662442
48	0x4042583e	3.0366359
49	0x401c0898	2.4380245
50	0x4032bbeb	2.7927196
51	0x401fa5a4	2.494485
52	0x4010696e	2.256435
53	0x4025fa89	2.5934165
54	0x4035fda7	2.8436067
55	0x401b741a	2.4289613
56	0x401d039e	2.4533458
57	0x40230633	2.5472534
58	0x401db36f	2.4640768
59	0x40346922	2.8189168
60	0x40210e6f	2.516506
61	0x400a1dff	2.1580808
62	0x40258bb4	2.5866518
63	0x40265571	2.598965
64	0x40417ac4	3.023118
65	0x4016af34	2.3544436
66	0x402d54a7	2.7082918
67	0x400c009a	2.1875367
68	0x409101de	4.531478
69	0x403d6afa	2.9596543
70	0x402aaa3a	2.6666398
71	0x4014f235	2.3272831
72	0x403260d3	2.7871597
73	0x4028f0ab	2.6396892
74	0x4044151d	3.0637887
75	0x40241ae8	2.5641422
76	0x4039d363	2.903527
77	0x402635a1	2.5970232
78	0x401463e8	2.3185978
79	0x40177d22	2.3670125
80	0x4026f49b	2.6086795
81	0x407462b6	3.8185248
82	0x401b663c	2.428115
83	0x405696f6	3.352964
84	0x40396d1e	2.897285
85	0x401f8461	2.4924548
86	0x40090bfe	2.141357
87	0x402206fc	2.5316763
88	0x400f0868	2.234888
89	0x40351f29	2.8300269
90	0x403e7892	2.976109
91	0x409d969c	4.924635
92	0x40550371	3.328335
93	0x404414ee	3.0637774
94	0x4040fe3e	3.0155177
95	0x40607574	3.5071688
96	0x40325dc1	2.7869723
97	0x40571eb8	3.36125
98	0x401a6a25	2.4127285
99	0x404e73c1	3.225815
100	0x40397427	2.8977144
101	0x401bca79	2.434233
102	0x4066ec7f	3.6081846
103	0x403eeff8	2.9833965
104	0x4027d189	2.622164
105	0x401b8591	2.4300272
106	0x4071603e	3.7714992
107	0x404931a5	3.143655
108	0x40396215	2.8966115
109	0x404e3490	3.2219582
110	0x40262b8c	2.596408
111	0x405193cb	3.2746456
112	0x401ffbe4	2.4997492
113	0x40556df9	3.3348372
114	0x4024009f	2.562538
115	0x407271b1	3.7881892
116	0x402463ef	2.5685995
117	0x40421387	3.0324419
118	0x4016db06	2.3571181
119	0x406a6ba2	3.6628194
120	0x40461f7c	3.0956717
121	0x4086af8e	4.20893
122	0x4016e926	2.3579803
123	0x4070cce5	3.7625058
124	0x4024de7f	2.57608
125	0x403e40e9	2.9727118
126	0x403886c3	2.8832252
127	0x4017ff9f	2.3749769

fc2.weight f4 [64, 128]
0	0x3decdf2e	0.11566006
1	0xbe718ec3	-0.23589616
2	0xbd00586f	-0.031334337
3	0x3d33142b	0.043720406
4	0x3db62cd9	0.08895273
5	0x3b88c9ab	0.0041744313
6	0xbe955c38	-0.2917192
7	0xbe2cf5ec	-0.16890687
8	0xbeabee82	-0.33580405
9	0xbd8deb29	-0.06929619
10	0x3b599d48	0.003320532
11	0xbd33979d	-0.04384576
12	0xbc346019	-0.01100924
13	0x3dc7ab7f	0.09749507
14	0xbdf922e5	-0.12164859
15	0x3dce1727	0.1006301
16	0xbe089670	-0.13338637
17	0xbcbd4882	-0.023105863
18	0xbe5e074d	-0.21682473
19	0xbe337485	-0.17524917
20	0xbad82342	-0.001649
21	0x3e1a4a4a	0.15067402
22	0xbd639d77	-0.055570092
23	0x3d8fc16b	0.070193134
24	0xbc78f96e	-0.015196187
25	0x3b537e39	0.003227128
26	0xbe4aca4d	-0.19803734
27	0xbdcb52cd	-0.09927902
28	0x3cb6eec6	0.022330653
29	0xbe5ee1d3	-0.21765833
30	0x3a8f2134	0.001091993
31	0xbe4b3290	-0.19843507
32	0xbe04b78e	-0.12960646
33	0x3d932648	0.07185036
34	0xbcadaaf1	-0.021199675
35	0xbd92f538	-0.07175678
36	0xbe17581a	-0.14779702
37	0x3d7cafbb	0.061691027
38	0xbe4026ef	-0.18764852
39	0x3d8ddc6b	0.06926807
40	0xbe4f18f1	-0.20224358
41	0x3cccb141	0.024986865
42	0x3dadda70	0.08488929
43	0xbd2b2629	-0.04178444
44	0xbe1844e5	-0.14870031
45	0xbdfb70de	-0.12277387
46	0x3c06216f	0.008186682
47	0xbe727616	-0.23677859
48	0xbd06819a	-0.03283844
49	0xbc67978c	-0.014135253
50	0xbd1bcb7a	-0.038035847
51	0x3e4ad1e5	0.19806631
52	0xbe5e1a4b	-0.21689717
53	0x3e59ec23	0.21281485
54	0xbe0c7635	-0.13716967
55	0x3d6185c1	0.0550592
56	0x3e141437	0.14460836
57	0xbd70f2ff	-0.05882549
58	0xbd55999b	-0.052148443
59	0xbe1af66c	-0.15133065
60	0xbdda579f	-0.10661244
61	0xbe90e024	-0.28296006
62	0x3d870e8e	0.06594573
63	0xbd58368b	-0.05278639
64	0xbe09f2ee	-0.13471577
65	0x3d0a0e19	0.03370485
66	0xbda1637d	-0.07880304
67	0x3e0eff6b	0.13964622
68	0xbe8fd61b	-0.28093037
69	0xbe527806	-0.20553598
70	0xbd9f7a6a	-0.077870205
71	0x3cab981e	0.020946559
72	0xbea98173	-0.33106574
73	0xbd65b2e2	-0.0560788
74	0x3dede9e8	0.1161688
75	0xbd8f894a	-0.07008608
76	0x3e0984fb	0.13429634
77	0x3c81eedc	0.015860967
78	0xbc465641	-0.0121055255
79	0xbe57df69	-0.21081318
80	0xbd5a3439	-0.05327246
81	0xbd4f1fae	-0.05056732
82	0x3d91af1b	0.07113477
83	0xbe79e1df	-0.24402569
84	0xbe36db46	-0.17857084
85	0x3d706f68	0.058699995
86	0xbcec787a	-0.028866041
87	0x3c929757	0.01789443
88	0x3d76b02f	0.060226616
89	0xbdae4861	-0.08509899
90	0xbe7e913c	-0.2486009
91	0xbea4487d	-0.32086554
92	0xbdebb75f	-0.11509585
93	0xbeb45e34	-0.3522812
94	0xbe51ca24	-0.20487267
95	0x3d84085b	0.06446906
96	0xbc95c905	-0.01828433
97	0x3c494736	0.012285044
98	0xbdcc0cf9	-0.09963412
99	0xbdff3020	-0.12460351
100	0x3cd9d34b	0.02659001
101	0x3b1ad16f	0.0023623367
102	0x3d3e9c49	0.046535764
103	0x3d12cd39	0.035840247
104	0x3e3b1745	0.18270595
105	0xbd6f2168	-0.058381468
106	0xbd2aff98	-0.04174766
107	0xbe7a9e09	-0.24474348
108	0x3e0a1c85	0.13487442
109	0xbdd3a3e6	-0.103339955
110	0x3c97a193	0.018509662
111	0xbcca35ae	-0.0246838
112	0xbe21f0f3	-0.15814571
113	0xbe3a55f3	-0.1819685
114	0x3db5d021	0.08877588
115	0xbe26df3b	-0.16296093
116	0xbd4663dc	-0.048435077
117	0xbde4ff56	-0.11181514
118	0xbe586c5e	-0.21135089
119	0xbeb54077	-0.35400745
120	0xbe987651	-0.29777768
121	0xbf060ee9	-0.523665
122	0xbd95cf84	-0.07314971
123	0xbd1ace77	-0.037794556
124	0xbe039898	-0.12851179
125	0xbe746bc2	-0.23869231
126	0xbe2ac226	-0.16675624
127	0xbc9f463e	-0.019442674
128	0xbc4b1d17	-0.012397072
129	0x3e1bd4f6	0.15217957
130	0xbb0e6dc8	-0.0021732915
131	0x3de8e954	0.11372629
132	0x3d3a6ac3	0.045511972
133	0xbbcf876f	-0.0063332836
134	0x3e2f727d	0.17133518
135	0x3ceacd57	0.028662367
136	0x3dd0b645	0.10191015
137	0xbce85459	-0.028360533
138	0xbdeff636	-0.11716883
139	0xbda4b98f	-0.08043205
140	0xbd904dc2	-0.07046081
141	0xbe460998	-0.19339597
142	0x3e2cda55	0.16880162
143	0xbe9e416c	-0.30909288
144	0xbe635aa0	-0.2220254
145	0x3e5422e4	0.20716435
146	0x3dee9429	0.11649353
147	0xbc4b0724	-0.012391839
148	0xbca00ae2	-0.01953644
149	0xbe6abd69	-0.22923817
150	0xbc47f5c2	-0.012204589
151	0xbefd3b78	-0.49459434
152	0x3e20ed5a	0.15715542
153	0xbd6c558c	-0.05769877
154	0x3d64c0fc	0.055848107
155	0xbdc8ad01	-0.09798623
156	0x3bf157bf	0.0073651965
157	0x3d943193	0.07236018
158	0xbeb6ea66	-0.35725707
159	0xbcc90828	-0.024540022
160	0xbb4a7c05	-0.0030896675
161	0xbe5e67a1	-0.21719219
162	0xbce4a32f	-0.027909843
163	0xbe7ba563	-0.24574809
164	0x3d4edb8a	0.050502338
165	0xbebbaaab	-0.36653647
166	0x3d6a7bf4	0.057247117
167	0xbe849ab3	-0.25899276
168	0xbd16b4b8	-0.03679344
169	0xbcdee682	-0.027209524
170	0xbe31e04c	-0.17370719
171	0xbd89ada3	-0.06722572
172	0x3d2c3ff4	0.042053178
173	0x3e27a8f5	0.16373046
174	0x3e0e080b	0.13870256
175	0x3e26d111	0.1629069
176	0x3d57b74a	0.052665032
177	0x3d96002c	0.073242515
178	0xbd60bfb4	-0.054870322
179	0xbe1530e1	-0.14569427
180	0x3e285d7a	0.16441908
181	0x3e184b3b	0.14872448
182	0xbdd9e4ef	-0.10639369
183	0x3d5a1937	0.053246703
184	0x3e4d5cb5	0.20054896
185	0x3c0ad051	0.008472518
186	0xbdadf327	-0.08493643
187	0x3c200d13	0.009768742
188	0x3d151324	0.036395207
189	0x3bbd230e	0.005772001
190	0xbd94a249	-0.07257516
191	0xbe9188ef	-0.28424785
192	0xbc42ae35	-0.0118823545
193	0x3e0b427b	0.13599579
194	0x3dfd736c	0.123755306
195	0xbe295885	-0.16537674
196	0x3d449555	0.047993977
197	0xbd8e6c59	-0.069542594
198	0xbe6fc516	-0.23415026
199	0x3debd92e	0.11516033
200	0x3da776d9	0.08176965
201	0x3db71a98	0.08940619
202	0xbca46ab3	-0.02007041
203	0xbcb8149c	-0.022470765
204	0x3d4bb6d0	0.04973489
205	0xbed0d206	-0.40785235
206	0xbcb4b9d5	-0.022061268
207	0x3d77ede9	0.060529623
208	0x3c828963	0.015934652
209	0x3e7fc852	0.2497876
210	0xbc81e7db	-0.015857628
211	0xbd5ae456	-0.053440414
212	0xbd8690c1	-0.06570578
213	0xbdc97d6b	-0.09838375
214	0xbd8e16bb	-0.06937929
215	0x3db8e116	0.09027307
216	0xbdaa0768	-0.08302194
217	0x3d6fee58	0.05857691
218	0xbdb4fe6f	-0.08837592
219	0xbd0d0c16	-0.034435354
220	0x3eaa34f5	0.33243528
221	0x3d229218	0.039690107
222	0xbc47fa0b	-0.012205611
223	0xbdf04c08	-0.11733252
224	0xbed4b2b4	-0.4154259
225	0x3e09d679	0.13460721
226	0x3e318281	0.1733494
227	0xbdd0d2dc	-0.10196468
228	0xbdc2cde0	-0.09511924
229	0xbc11bc46	-0.008894986
230	0xbdac71a5	-0.084201135
231	0xbe0ded6b	-0.13860099
232	0xbe95103c	-0.29113948
233	0x3d231801	0.039817814
234	0xbe621ba0	-0.2208085
235	0xba0dce9b	-0.000540951
236	0xbe5277c5	-0.20553501
237	0x3d3ebcd6	0.046566807
238	0x3d9d9d93	0.076960705
239	0xbe2985cb	-0.16554944
240	0x3c1094ad	0.00882451
241	0xbe492b12	-0.19645336
242	0xbe1b2d68	-0.1515404
243	0x3d8fe931	0.070268996
244	0x3d97ee9a	0.074185565
245	0x3de29752	0.11064018
246	0x3d5d99c2	0.054101713
247	0x3e6a42bc	0.2287702
248	0xbd804397	-0.06262892
249	0x3e23e10d	0.16003819
250	0x3d1e2974	0.03861375
251	0xbc44b22b	-0.012005369
252	0x3d5f1352	0.054461785
253	0xbd89a3e9	-0.067207165
254	0x3d5d2636	0.05399152
255	0x3ca0e96a	0.01964255

fc2.bias f4 [64]
0	0x3d75758b	0.05992655
1	0x3d9cce09	0.076564856
2	0xbd6e9475	-0.05824705
3	0x3c51b2aa	0.0127989445
4	0xbd5f57d6	-0.054527126
5	0x3c8e86ab	0.017398199
6	0xbc268f57	-0.010166011
7	0xbc35fe16	-0.011107942
8	0xbc4f46ae	-0.012651129
9	0x3d9fb611	0.07798398
10	0x3d83c421	0.06433893
11	0xbd856fad	-0.06515441
12	0x3cfd9b2d	0.030957783
13	0xbcb3d6b0	-0.021952957
14	0x3d90de94	0.070737034
15	0x3d828219	0.063724704
16	0x3cfce57f	0.030871151
17	0xbcb27477	-0.02178405
18	0xbcf1a53c	-0.029497735
19	0xbdae41b0	-0.08508623
20	0x3bacd709	0.0052746576
21	0x3d75fa77	0.060053315
22	0x3d50952f	0.050923523
23	0xbd057bdb	-0.03258882
24	0x3d6f467d	0.058416832
25	0x3daff3b7	0.08591407
26	0xbcee51ff	-0.029091833
27	0xbd8d7ee5	-0.06908969
28	0xbdaa36a3	-0.083112024
29	0xbdac210a	-0.08404739
30	0x3b0fb6a3	0.0021928928
31	0xbdb86d64	-0.090052396
32	0xbd02e8ac	-0.031960174
33	0x3c87ac98	0.016561791
34	0x3c3959c1	0.011312903
35	0x3d4df8ea	0.05028621
36	0xbdac7fb6	-0.084227964
37	0x3d90f359	0.07077665
38	0xbd86f916	-0.06590478
39	0x3da92cd3	0.08260503
40	0x3d423a4e	0.047418885
41	0xbcb67ec2	-0.02227724
42	0x3da0af05	0.07845882
43	0x3d4b4c37	0.04963323
44	0xbd1f7109	-0.038926158
45	0x3d37723a	0.04478667
46	0x3c138f16	0.009006282
47	0x3d3bfe56	0.04589685
48	0x3cdefd46	0.02722038
49	0xbd4c2be7	-0.049846556
50	0x3d5bf374	0.053698972
51	0xbd42d5fc	-0.047567353
52	0x3d100e18	0.03516969
53	0x3d863edb	0.065549575
54	0xbda75e44	-0.081722766
55	0x3d15adb8	0.036542624
56	0xbd86835a	-0.06568022
57	0x3d88e295	0.06683842
58	0xbc16850b	-0.009186993
59	0xbd801fb3	-0.06256046
60	0x3d99cf50	0.07510245
61	0xbd94203e	-0.07232712
62	0x3cce8c36	0.025213342
63	0xbc364fc0	-0.011127412

bn2.weight f4 [64]
0	0x3f53f429	0.82794434
1	0x3f4547a3	0.77062434
2	0x3f535073	0.8254463
3	0x3f5db817	0.86609024
4	0x3f4c7f97	0.79882187
5	0x3f3b7b4f	0.7323503
6	0x3f46e7a5	0.7769721
7	0x3f56c004	0.8388674
8	0x3f4a54f5	0.79035884
9	0x3f499dce	0.78756416
10	0x3f3b4279	0.73148304
11	0x3f53987f	0.82654566
12	0x3f4bee7b	0.7966077
13	0x3f3c0160	0.734396
14	0x3f47a88b	0.7799155
15	0x3f40c7a6	0.7530464
16	0x3f441e35	0.7660859
17	0x3f492462	0.7857114
18	0x3f4bd7a0	0.7962589
19	0x3f4100a4	0.753916
20	0x3f41d946	0.7572216
21	0x3f4c1cef	0.7973165
22	0x3f40cb83	0.75310534
23	0x3f4ab6a5	0.79184943
24	0x3f56ca14	0.83902097
25	0x3f49444d	0.78619844
26	0x3f5705b9	0.8399311
27	0x3f50b4a6	0.8152565
28	0x3f4df83a	0.8045689
29	0x3f563e92	0.83689225
30	0x3f4d8a90	0.80289555
31	0x3f528a22	0.82242024
32	0x3f5574fe	0.8338164
33	0x3f52c541	0.82332236
34	0x3f54c9fb	0.831207
35	0x3f530c1e	0.82440364
36	0x3f549251	0.8303576
37	0x3f488e2b	0.7834193
38	0x3f4d9034	0.8029816
39	0x3f4f424b	0.8096053
40	0x3f42331c	0.75859237
41	0x3f3dd62e	0.7415494
42	0x3f43e8d0	0.7652712
43	0x3f496c87	0.78681225
44	0x3f479e16	0.77975595
45	0x3f49f92d	0.7889584
46	0x3f4af263	0.792761
47	0x3f49d4b5	0.7884019
48	0x3f4c081e	0.79699886
49	0x3f4bc68b	0.7959983
50	0x3f59bb8e	0.8505181
51	0x3f5ed92a	0.87050116
52	0x3f4b8e23	0.7951376
53	0x3f4ae2b7	0.7925219
54	0x3f51a5fd	0.81893903
55	0x3f481b39	0.7816654
56	0x3f57028e	0.83988273
57	0x3f51c325	0.8193839
58	0x3f49c12d	0.7881039
59	0x3f486b6f	0.7828893
60	0x3f5033d2	0.8132907
61	0x3f5df2bc	0.8669851
62	0x3f5229fd	0.8209532
63	0x3f466473	0.77497023

bn2.bias f4 [64]
0	0xbe574a33	-0.21024399
1	0xbdb01dd9	-0.08599443
2	0xbcef6cae	-0.029226627
3	0xbdfd1559	-0.12357587
4	0xbe2ea66c	-0.17055672
5	0xbd9f5815	-0.07780472
6	0xbde1967b	-0.1101503
7	0x3c39f51e	0.011349944
8	0xbe2df123	-0.16986518
9	0xbe826cf3	-0.25473747
10	0xbc8fb6fd	-0.01754331
11	0xbdea9e56	-0.114559814
12	0xbeae1d5d	-0.34006777
13	0xbe22059c	-0.15822452
14	0xbe03ebf4	-0.12882978
15	0xbe8a55ed	-0.2701868
16	0xbdbcfd50	-0.09228003
17	0xbe8e7837	-0.27826092
18	0xbe7dc041	-0.2478037
19	0xbd207491	-0.039173666
20	0xbe448081	-0.19189645
21	0xbea20722	-0.31646067
22	0xbe20d3f9	-0.15705861
23	0xbe68d6ba	-0.22738162
24	0xbdd40e11	-0.103542455
25	0xbe80e01b	-0.2517098
26	0xbd707944	-0.058709398
27	0xbe8f6855	-0.28009287
28	0xbe219c49	-0.15782274
29	0xbddafb70	-0.10692489
30	0xbe6dbb59	-0.23215999
31	0xbe0a62b0	-0.13514209
32	0xbe9e43fc	-0.30911243
33	0xbe5065d7	-0.20351349
34	0xbe01289b	-0.12613146
35	0xbd30e767	-0.043189432
36	0xbdb964c0	-0.0905242
37	0xbec7aa91	-0.3899732
38	0xbdb70264	-0.08936003
39	0xbe14b553	-0.14522295
40	0xbe4a7ce9	-0.19774212
41	0x3cbebba7	0.023282839
42	0xbe87e61c	-0.26542747
43	0xbe677162	-0.22601846
44	0xbd7e3b6b	-0.062068384
45	0xbe488d12	-0.19585064
46	0xbe5e2cd5	-0.2169679
47	0xbd2f30d9	-0.042771194
48	0xbe16dd07	-0.14732753
49	0xbe8f5c6d	-0.28000203
50	0xbcf42348	-0.02980198
51	0xbcbb8f88	-0.02289559
52	0xbd00c323	-0.031436097
53	0xbec3f284	-0.38270962
54	0xbdf1eb6b	-0.118124805
55	0xbd88590d	-0.0665761
56	0xbe969029	-0.2940686
57	0xbd79b05c	-0.060959205
58	0xbe869f32	-0.2629333
59	0xbed3f0df	-0.41394708
60	0xbde4cda4	-0.11172035
61	0xbe5ae81a	-0.21377602
62	0xbdbdef00	-0.09274101
63	0xbeaf7b39	-0.342737

bn2.running_mean f4 [64]
0	0xbfef59fd	-1.8699337
1	0xbf18dfa4	-0.5971625
2	0xbfe4f7c0	-1.7888107
3	0xbf194b46	-0.59880483
4	0xbf51e3b5	-0.8198808
5	0xbfa89af9	-1.3172294
6	0xbf053dcf	-0.5204744
7	0xbf070f5e	-0.52757823
8	0xbfdd652b	-1.7296499
9	0xbffd8c85	-1.9808508
10	0xbea71ec9	-0.32640675
11	0xbfb96e03	-1.4486698
12	0xbfbb6476	-1.4640033
13	0xbf7029a1	-0.9381352
14	0xbfe53214	-1.7905908
15	0xbf81f1eb	-1.0151953
16	0xbfdb6133	-1.7139038
17	0xbfd4af35	-1.6615969
18	0xbfdcab1c	-1.7239718
19	0xbfc3bd56	-1.5292156
20	0xbf2ddc02	-0.6791383
21	0xbff9f5ac	-1.9528098
22	0xbfa6e305	-1.3038031
23	0xbfc64268	-1.5489016
24	0xbf648ff7	-0.8928217
25	0xbe05e5f0	-0.13075995
26	0xbf79d1b9	-0.97585636
27	0xc004451a	-2.0667176
28	0xbfb5b0f2	-1.4194624
29	0xbf7d6c6d	-0.9899357
30	0xbfe9019a	-1.8203614
31	0xbfe57e9d	-1.7929264
32	0xbfe6bf72	-1.8027174
33	0xbfd8f740	-1.6950455
34	0xbfa711c9	-1.3052303
35	0xbf21692f	-0.6305112
36	0xbff79346	-1.9341819
37	0xc00290bc	-2.040084
38	0xbf95ee83	-1.1713413
39	0xbf11fdec	-0.5702808
40	0xbf1bf05b	-0.6091363
41	0xbf168092	-0.5878993
42	0xbfd58077	-1.6679829
43	0xbf82e363	-1.0225643
44	0xbf8b6873	-1.089125
45	0xbf7213a0	-0.94561195
46	0xbfaeedca	-1.3666317
47	0xbf58e198	-0.8471923
48	0xbecc2109	-0.39868954
49	0xbf9c053e	-1.21891
50	0xbf3e5508	-0.743485
51	0xbf1a924d	-0.6037949
52	0xbf18a027	-0.59619373
53	0xbfff00c5	-1.992211
54	0xbfba29a3	-1.4543957
55	0xbf95a03d	-1.1689526
56	0xc019ea92	-2.404942
57	0xbf56c9ef	-0.83901876
58	0xbf8bd861	-1.0925409
59	0xbfec096b	-1.8440374
60	0xbf27560e	-0.65365684
61	0xbfef9b78	-1.871932
62	0xbfd8e237	-1.6944035
63	0xbfd4bf0d	-1.6620804

bn2.running_var f4 [64]
0	0x409fc335	4.992579
1	0x40622e29	3.5340674
2	0x40de16d0	6.9402847
3	0x409932b4	4.7874393
4	0x40c7dca5	6.245684
5	0x406363dd	3.5529702
6	0x40212678	2.517973
7	0x40b47787	5.6395907
8	0x409da361	4.9261937
9	0x40c8bd17	6.2730823
10	0x407907ff	3.891113
11	0x409dd455	4.9321694
12	0x4061d307	3.528505
13	0x4032a50e	2.7913241
14	0x405a0b1f	3.4069288
15	0x4064fb98	3.577856
16	0x404f05fa	3.2347398
17	0x409f430c	4.9769344
18	0x4090cd0a	4.525029
19	0x403f5d27	2.9900606
20	0x400548c2	2.0825658
21	0x40629338	3.5402355
22	0x40116d46	2.2722945
23	0x40a8b678	5.272274
24	0x40db3121	6.849747
25	0x3fe32ea2	1.7748606
26	0x40ba931b	5.830457
27	0x40a546d8	5.164898
28	0x40544033	3.3164184
29	0x40e60cc5	7.189059
30	0x40a01dee	5.0036535
31	0x40ae9bf7	5.4565387
32	0x40a2d579	5.0885587
33	0x409907aa	4.7821856
34	0x40934d8f	4.6032176
35	0x40936433	4.6059813
36	0x40a40b7c	5.126402
37	0x4094e455	4.6528726
38	0x409986a4	4.7976856
39	0x40b3bc7a	5.6167574
40	0x4014f1dd	2.3272622
41	0x407d7096	3.9599967
42	0x40678c04	3.6179209
43	0x40b6e85c	5.715864
44	0x40a68d4a	5.204747
45	0x40af1968	5.4718513
46	0x40872e6c	4.2244167
47	0x40ac0bef	5.3764567
48	0x3ff35adb	1.9012102
49	0x4090809b	4.515699
50	0x4094df74	4.652277
51	0x4068b071	3.6357691
52	0x40b883b1	5.7660756
53	0x40981fa1	4.753861
54	0x40b5b60e	5.6784735
55	0x406bff42	3.6874547
56	0x40c3d2e8	6.1194954
57	0x40910664	4.53203
58	0x408d91cc	4.4240475
59	0x40669b25	3.6032193
60	0x409b067d	4.844542
61	0x409a43b3	4.820764
62	0x40564200	3.3477783
63	0x408704bb	4.2193274

fc3.weight f4 [3, 64]
0	0xbe09cd28	-0.13457167
1	0x3b55aac8	0.0032603014
2	0xbd76e293	-0.06027467
3	0x3e139e30	0.14415812
4	0xbc8100da	-0.015747476
5	0xbd0a599f	-0.033776876
6	0x3d0bd31e	0.034136884
7	0x3c4f63c6	0.012658065
8	0xbe0d6621	-0.1380849
9	0xbd97253c	-0.07380149
10	0x3d21dd18	0.039517492
11	0xbe10c45b	-0.14137404
12	0xbd145f8c	-0.036223933
13	0xbd933c4e	-0.071892366
14	0xbe3330a9	-0.17499031
15	0x3d8d4192	0.06897272
16	0xbdd9a12f	-0.106264465
17	0xbe37dad1	-0.17954566
18	0xbdda3210	-0.1065408
19	0xbe0475d0	-0.12935567
20	0x3cedc2e5	0.029023597
21	0xbd7c300a	-0.06156925
22	0xbb5c3d6e	-0.003360595
23	0x3d804bd1	0.06264461
24	0x3d506955	0.050881702
25	0x3dac2876	0.08406155
26	0x3dbe0ef8	0.09280199
27	0xbdc9b8b1	-0.0984968
28	0xbdfabcf4	-0.12243071
29	0x3e0087ee	0.12551853
30	0xbd435185	-0.047685165
31	0xbd3ab641	-0.045583967
32	0xbcd1b793	-0.02560023
33	0xbd99e001	-0.075134285
34	0xbe55e85b	-0.20889418
35	0x3dc3c7a2	0.09559561
36	0xbe0f3e87	-0.13988696
37	0xbe01cede	-0.1267657
38	0x3d5cb9b6	0.053888045
39	0x3db3666c	0.0875977
40	0x3e0891b8	0.13336837
41	0x3d9bfcc9	0.07616574
42	0xbcb10aaa	-0.02161153
43	0x3d36c20f	0.044618662
44	0x3e0307c0	0.12795925
45	0x3db11664	0.08646849
46	0xbbaaf3fb	-0.005217073
47	0x3d80814e	0.06274663
48	0x3dc43c9c	0.09581873
49	0x3da89b37	0.0823273
50	0x3e17457e	0.14772603
51	0x3c7b275f	0.015329211
52	0x3d98bf89	0.074584074
53	0x3cf12a57	0.029439135
54	0xbe395ccf	-0.1810181
55	0xbd8cfc1b	-0.06884023
56	0xbe2e8619	-0.17043342
57	0x3da10a91	0.078633435
58	0x3d494cfe	0.04914569
59	0x3d308ef4	0.04310508
60	0x3e04fd30	0.12987208
61	0xbda47c0d	-0.08031473
62	0xbd180564	-0.037114516
63	0xbd2b8b90	-0.041881144
64	0x3b2d5cac	0.0026452942
65	0x3cc9bdf8	0.024626717
66	0x3d61f713	0.05516727
67	0x3de2d73b	0.11076208
68	0xbdd00f44	-0.10159162
69	0x3dab6dbe	0.08370541
70	0xbd54f290	-0.051989138
71	0xbd028d8b	-0.031873267
72	0x3c54682a	0.012964288
73	0x3d55b293	0.052172255
74	0x3ca8242d	0.020525062
75	0x3c15f030	0.009151503
76	0xbd3ff3cc	-0.046863362
77	0xbc0bf038	-0.008541159
78	0xbd1ef387	-0.038806465
79	0xbce43788	-0.02785851
80	0x3c482931	0.012216852
81	0xbda55584	-0.080729514
82	0xbcd8d275	-0.026467541
83	0x3d0e0fdf	0.034683105
84	0xbdc4fed3	-0.09618916
85	0x3c414911	0.011797206
86	0x3ddc3a36	0.1075329
87	0xbd165f68	-0.03671208
88	0xbcbd1f0d	-0.023086095
89	0xbd7628ed	-0.060097624
90	0x3ce4e422	0.027940813
91	0xbbe96e2e	-0.00712373
92	0x3d42a790	0.04752308
93	0x3dc042e2	0.09387757
94	0x3d0ed034	0.034866527
95	0x3d9c5a45	0.07634405
96	0xbc61b008	-0.013774879
97	0x3dab0141	0.083498485
98	0xbddc1346	-0.107458636
99	0x3d886a94	0.06660953
100	0x3d22a60f	0.039709147
101	0xbd804562	-0.06263234
102	0xbd5c5a72	-0.053797193
103	0x3d0306a2	0.031988747
104	0x3cc47818	0.023983046
105	0x3d324af0	0.043528497
106	0xb9b4de80	-0.0003449805
107	0xbd1ff689	-0.039053474
108	0x3db25cdc	0.08709118
109	0x3c516dff	0.012782573
110	0xbda55edd	-0.08074734
111	0x3cffb790	0.03121546
112	0xbd66263b	-0.056188803
113	0xbd39ae07	-0.04533198
114	0x3ddbe112	0.10736288
115	0x3be844f2	0.007088297
116	0x3d5a4297	0.05328616
117	0x3da9776b	0.0827473
118	0xbdbd8b1d	-0.092550494
119	0x3db132cb	0.08652266
120	0xbd82672d	-0.063673355
121	0x3c5b89bf	0.01339954
122	0xbd8234af	-0.06357705
123	0x3cc4c52d	0.024019802
124	0x3d0e66ec	0.034766123
125	0x3d8034fc	0.06260106
126	0x3e0bd622	0.13655904
127	0xbd2a58db	-0.041588645
128	0x3d377fe3	0.044799697
129	0xbe247716	-0.16061053
130	0x3df28cee	0.118432865
131	0xbd3cc383	-0.046084892
132	0xbe0c9aec	-0.13730973
133	0x3d4ca170	0.049958646
134	0x3d423e46	0.04742267
135	0xbe4b7907	-0.19870387
136	0x3d2ad3bf	0.041705843
137	0x3da8c7de	0.08241247
138	0xbddcccc7	-0.10781246
139	0x3c2094ba	0.009801084
140	0x3db3a88f	0.087723844
141	0xbe26dcd9	-0.16295184
142	0xbd32480b	-0.043525737
143	0xbd1497a8	-0.036277443
144	0xbc06df41	-0.008231939
145	0x3b032d9b	0.0020016197
146	0x3d89a328	0.06720573
147	0x3c735779	0.014852398
148	0x3d149056	0.036270462
149	0x3df0679a	0.117385104
150	0xbd1315a4	-0.03590931
151	0xbdd13e47	-0.102169566
152	0xbdf99f1b	-0.1218855
153	0x3db737e4	0.08946207
154	0xbdc6318b	-0.09677418
155	0x3da9d08d	0.08291731
156	0x3d53abe8	0.051677614
157	0xbd3436fd	-0.043997753
158	0x3ddf6c5a	0.10909338
159	0x3dd2ad21	0.10286928
160	0x3de8820a	0.11352928
161	0x3de28050	0.1105963
162	0xbd2151c3	-0.039384615
163	0xbddba8e5	-0.107255735
164	0x3d368128	0.044556767
165	0x3d3db98f	0.04631954
166	0xbdba19b9	-0.090869375
167	0xbdc9a6cb	-0.09846266
168	0x3dafe87a	0.08589263
169	0xbdc5f372	-0.09665574
170	0x3dfa7bbe	0.12230633
171	0xbdd4047a	-0.10352416
172	0xbd8c257c	-0.06843087
173	0xbd804c9b	-0.06264611
174	0xbde1972d	-0.110151626
175	0xbdfc99d4	-0.12334028
176	0x3cec2d1e	0.028830107
177	0xbdb1eda7	-0.08687907
178	0xbce21047	-0.027595652
179	0xbe53a03f	-0.20666598
180	0xbded625d	-0.11591027
181	0x3e38b510	0.1803782
182	0xbd4a7842	-0.049431093
183	0x3d69f0fe	0.057114594
184	0x3c8dc14d	0.017304087
185	0xbe174a7f	-0.14774512
186	0xbd859b2c	-0.06523737
187	0x3e19339f	0.14961098
188	0xbca99b9f	-0.020704089
189	0x3e0ca88d	0.13736172
190	0x3d9b227f	0.07574939
191	0x3db33ef8	0.08752245

fc3.bias f4 [3]
0	0xbcdd4b79	-0.027013527
1	0x3db84a48	0.08998543
2	0xbc9a091b	-0.01880317
